GCN_model.pt (torch, 264480 bytes, 4 tensors)

conv1.bias f4 [64]
00000000: 6e46 523d cb1e fc3d 820f 833b d8ae da3b
00000010: 13c5 653d 3847 9a3d 574c 333c dfa0 973c
00000020: 3c2e 33bc 8f2a e3bb 2373 133c 6cda 913d
00000030: da2f e93d f6fb 023d 9422 37bd 6ff8 1e3d
00000040: 4d49 973c 255d 6a3d ccf1 c13b 6f7a 173d
00000050: 5eba 01bc bd70 493c b6e7 c9bd 18cf 87bb
00000060: da7e 473d 0aa6 8a3b b89e 623d 6cc5 9e3d
00000070: 6278 863c db86 fd3c 4139 1b3c 76e6 ee3c
00000080: ba66 ac3a 3626 efbc a8e5 493d 0b39 2b3d
00000090: 49d5 ebba 3610 793c db76 193d c092 7d3c
000000a0: 5de9 e83c df6c a93d 2d84 923d 912d 13bc
000000b0: 3078 353d 03f6 92ba 6338 bd3d 1f8d 4cbd
000000c0: 2e7b 1a3d 8aac 87bc 4693 8e3c de4d 903d
000000d0: d28c 3abd 0603 83bc 6933 e33c 06bb cdb9
000000e0: 54b0 893d f656 033c 3a04 743d 5c59 55bd
000000f0: fcb6 a13c 863e 453c f49f d1bc 88ba 243d
0.0513367 0.12310561 0.0039996514 0.006673675 0.056096148 0.07533115 0.010943494 0.018509327
-0.010936316 -0.0069325636 0.008999619 0.07121739 0.1138608 0.03197857 -0.04471071 0.038811143
0.01846757 0.057217736 0.005918717 0.036981996 -0.007917969 0.012294945 -0.098586485 -0.0041445605
0.04870496 0.004231219 0.055327147 0.07752499 0.016414825 0.030948093 0.0094741 0.029162627
0.0013153173 -0.029193025 0.049291283 0.041802447 -0.0017992641 0.015201619 0.037466865 0.015476882
0.028431589 0.08272719 0.07154117 -0.008983032 0.044304073 -0.0011212233 0.092392705 -0.04993927
0.03771513 -0.016561765 0.01740421 0.07046102 -0.045544453 -0.015992653 0.027734475 -0.0003923999
0.06723085 0.008016339 0.059574343 -0.052087173 0.019740574 0.0120388325 -0.025588967 0.040216953

conv1.lin.weight f4 [64, 1000]
00000000: 7097 debd 9fbc 37bf 2ba0 95be 3ad3 27bf
00000010: 0341 3b3f 9fb1 573d ee18 5a3f b5f1 de3e
00000020: 76c4 8c3e 50db 1bbd fea3 30bf a017 443f
00000030: 858d 46bf c024 813e d389 633d 84f1 0c3f
00000040: cb24 8fbe 23b1 d33e f1eb 543c 0d1a 17bf
00000050: cb7e 483e 685c 8b3d 751c c03e 3a26 66bd
00000060: fe9f 00bf ac86 74be f263 d7be c229 1c3f
00000070: e077 5d3e fd76 f73e 462c 1fbf 85ed a33e
00000080: 8670 263e 9ea4 dc3e f07e bebe 4b58 a0bd
00000090: 51c6 893e 744b 973e e70c fa3e 6f9a 453c
000000a0: 42c0 303f 1973 043f 4234 13bf e433 bf3e
000000b0: c847 103d ebbe a53e 70a7 94be 6fca d3be
000000c0: f9d3 f2be cad6 053f 2996 033f 6467 233e
000000d0: d515 4bbe 91ba 3a3e 9619 d13d 4c5a 4f3e
000000e0: 7d1f 18be 1206 463e fa67 d0bd 2328 85be
000000f0: 6c2a f63e c9aa 01bd e441 05be c963 523e
00000100: 0b42 d13c 038a c3be abc3 773e 6fcf f03e
00000110: 8bfc b43e a51c e03e 57e4 1bbf f563 d8be
00000120: 622f 2abd 0631 ddbc 17e7 a83d 471d a5bd
00000130: f6b4 703e 0ea0 b03d b087 ba3d f8ac d6be
00000140: de2b 5e3e 2247 bebe ce9d 79be 1b96 3c3e
00000150: e3ed 903e b921 f0be 54d2 463e b466 5bbe
00000160: 0048 4abe ecc0 fdbe e58b e8bc fa1b d63e
00000170: 79ee a5be 4894 de3e c9b2 bd3e 4e6b 8a3d
00000180: d0be cdbe 61ec 72be cf16 cebe 0eb4 afbe
00000190: e735 2c3c 0792 1c3e dd8f 1abe b2ae ac3d
000001a0: fb1e 1e3e 4894 a43d 608d 92be c505 71be
000001b0: e269 9a3e f558 a23e af68 d73e 8879 31bf
000001c0: afa6 05be 3b39 4abe d205 48bd 1e3d 4fbe
000001d0: e526 8c3e 44c1 7f3e 1e79 943e b721 973e
000001e0: 8acb c9be 09bc bbbd de1a 873d d216 be3e
000001f0: 9199 cabd 0ad7 153e fe16 ecbe fa89 8fbe
00000200: 4eb0 163e 6575 fb3d 8cd5 10bf 8e7b b8be
00000210: 0b8a 29bd bd38 babe f886 343e 2c0e 6a3e
00000220: 2e17 343e 6e6e 95be ffcd 123f f8ae 2abe
00000230: 7d55 543e da16 ba3e 9b12 1abe 7314 62be
00000240: 114e 213f bafd 8ebe 2a31 c7be 3fd5 be3e
00000250: 0ae2 5a3c 56a3 c73e 1aff edbe d512 963d
00000260: cb50 ccbe 4069 b0be 31fa ac3e 13d3 da3e
00000270: 0675 6a3e a74d 95be ec26 9fbc b4fa 80be
00000280: e33f b5be 15a8 4ebd 127b db3e c70c 05bf
00000290: 5cbf b73e fff4 8ebe 1834 6e3e 5cd3 83be
000002a0: 2cc7 0e3e f352 2a3e 0b79 18bf fcbe bcbe
000002b0: d9f9 d4bd b72e f6be 7eac 43bd df86 78be
000002c0: 5825 ce3e c20c 4fbe b35e 2dbe 3d1a f33d
000002d0: 48e6 273e 2167 ab3e dfc2 9bbe 9cbf 78be
000002e0: 5951 f63d 53bc b83e f5b7 8ebc 7e75 4dbd
000002f0: ea1d a23e fe46 c63c 3d01 a43e 82ed 27be
00000300: 2364 a93e c7a0 f13e 2ff5 853e 23d4 8cbd
00000310: c722 5dbe d1ae ee3d f52f 7e3e 93d1 94be
00000320: 124c bb3e b97e 9a3e 956d de3e 751c 4cbe
00000330: dd6a 4c3e a1e8 013f 01e4 adbe 1a38 d9bd
00000340: 1e10 063e f0fd 16be 87d4 26bf 2109 96be
00000350: 571c bebe 7eb2 bdbd f0aa 95be 55c5 73be
00000360: 1625 1abf a98a 18be f3ad 8cbe 3d44 23be
00000370: 0082 36be 4f68 d43c 1428 8dbe aa96 4e3d
00000380: 69ac 37be 97ff 67bd b2ba 883e c004 ca3e
00000390: 1834 f73c e875 fd3d 1bb1 97be db99 b0bd
000003a0: 969d ccbe f284 27be 410f 8b3e 7b27 573e
000003b0: fa2b 0ebf de55 5c3e 0c47 0839 f257 27be
000003c0: cdd1 5abc 9ab4 883d beae 85bc b6de e23e
000003d0: 43e9 cebe a274 6ebe f780 013f 4288 523e
000003e0: 50ce eabe 4a35 e5be 215f 843e f3c1 1abf
000003f0: 73cc 4c3e 6866 063f 221a 2c3e c700 7abe
-0.10868728 -0.7177219 -0.2922376 -0.6555668 0.73146075 0.052659627 0.8519429 0.43543783
0.27493638 -0.03805095 -0.6900023 0.7659855 -0.7755969 0.2522335 0.05555136 0.55056024
-0.27957758 0.41346082 0.012995706 -0.59024125 0.19579618 0.068047345 0.3752171 -0.0561888
-0.5024413 -0.23879498 -0.4206844 0.6100122 0.2162776 0.48332968 -0.6217693 0.3201715
0.16253862 0.43094343 -0.3720622 -0.078293405 0.26909116 0.29549754 0.4883797 0.012060746
0.6904336 0.51738125 -0.57501614 0.37344277 0.035224706 0.3237222 -0.29033995 -0.41365382
-0.47427347 0.5228087 0.51401 0.15957409 -0.19832547 0.18235232 0.10209958 0.2024929
-0.14855762 0.19338253 -0.10176082 -0.26007184 0.4807924 -0.031657014 -0.13013417 0.20545878
0.025544187 -0.38191232 0.24195735 0.4703326 0.35348925 0.43771854 -0.60895294 -0.4226376
-0.041549094 -0.027000915 0.08247202 -0.08062225 0.23506531 0.08624278 0.091079116 -0.4192884
0.21696422 -0.37163645 -0.24376604 0.18416636 0.28306493 -0.46900728 0.19416171 -0.21425897
-0.19754028 -0.4956125 -0.02838702 0.4181822 -0.32408503 0.43472505 0.37050465 0.06758748
-0.4018464 -0.23722984 -0.40251777 -0.34317058 0.010510898 0.1529008 -0.15093942 0.08431758
0.15441506 0.08036095 -0.28623486 -0.23537357 0.30158907 0.31708494 0.42072055 -0.69326067
-0.13051866 -0.19748394 -0.048833676 -0.20238158 0.27373424 0.24976069 0.28998655 0.2951791
-0.394131 -0.09166724 0.065969214 0.37126786 -0.09892572 0.14632812 -0.46111292 -0.28034955
0.14715692 0.122782506 -0.56575847 -0.36031765 -0.041391414 -0.36371413 0.17629611 0.22856969
0.17586967 -0.29185814 0.57345575 -0.16668308 0.20735736 0.3634556 -0.1504616 -0.22078113
0.63009745 -0.27927953 -0.38904697 0.3727207 0.013359556 0.38991803 -0.4648369 0.07327811
-0.3990539 -0.344553 0.3378463 0.42739162 0.22896203 -0.29160807 -0.01942774 -0.2519127
-0.35400304 -0.050453264 0.42867333 -0.5197262 0.35888183 -0.27921292 0.2326206 -0.25747192
0.13943166 0.16633205 -0.59559697 -0.3686446 -0.10399217 -0.48082516 -0.047771923 -0.24270199
0.40262866 -0.2021971 -0.16930656 0.11870239 0.16396439 0.3347712 -0.30422112 -0.24291843
0.120272346 0.3608118 -0.017421702 -0.050160877 0.31663448 0.024203774 0.32032195 -0.16399196
0.3308421 0.47192976 0.26163623 -0.06876399 -0.21595298 0.11654437 0.24822982 -0.29066142
0.36581475 0.30174807 0.4344298 -0.1993273 0.1996264 0.5074559 -0.33963016 -0.10606404
0.13092086 -0.14745307 -0.6516804 -0.2930384 -0.37130997 -0.0926256 -0.29231977 -0.23805745
-0.6021284 -0.14896645 -0.27476463 -0.15944 -0.17823029 0.025928644 -0.2756964 0.050436653
-0.17936863 -0.056640234 0.26704937 0.3945675 0.030176207 0.123760045 -0.29627308 -0.086230956
-0.3996398 -0.16359308 0.27160075 0.21011154 -0.5553585 0.2151713 0.00012996438 -0.16342142
-0.0133556845 0.06675072 -0.016318675 0.4431054 -0.4041234 -0.2328668 0.5058741 0.2055979
-0.4586053 -0.4476722 0.25853828 -0.60452193 0.19999866 0.5250001 0.16806844 -0.24414359

conv2.bias f4 [23]
00000000: 9cc8 bd3e 3287 7bb9 f46f 2dbe d891 d2bd
00000010: dc62 7f3e d868 93be 4bd0 023c b391 e0bd
00000020: 58c1 74be 023b 51be 9a31 52be 6d6c 1ebe
00000030: 17ab 633d fad5 f23d 6744 483e cdb3 863e
00000040: 4cd8 0dbd 2cd8 f23c 0813 ffbd 722e cb3d
00000050: 9c0d c2bc 686a 0ebe edb3 033e
0.37067115 -0.0002398759 -0.16937238 -0.10281724 0.24940056 -0.28790927 0.007984231 -0.1096529
-0.2390188 -0.20432666 -0.20526734 -0.15471049 0.055583086 0.11857219 0.19557343 0.26309052
-0.034630105 0.029644094 -0.12454802 0.09920968 -0.02368813 -0.13907778 0.12861605

conv2.lin.weight f4 [23, 64]
00000000: bc06 57bf 9657 52bf 05de 4fbf a725 48bf
00000010: a300 bb3e 84a4 393f 6dcb 46bf 9429 4abf
00000020: 0c66 3ebf a09d 3cbf c151 4b3f 6493 3b3f
00000030: ca3e 5bbf c631 40bf 448e 423f 99bc 453f
00000040: d40c 34bf b69d 2f3f f3c5 45bf c1be 2dbf
00000050: 68f2 4b3f 7af1 4e3f cde5 2cbf 245d 3abf
00000060: a8f3 403f 7445 4abf 4c38 3d3f 4b5b 373f
00000070: 901f 43bf 1587 51bf e630 46bf 4478 493f
00000080: 5aee 41bf f861 38bf 3054 4ebf d7c6 313f
00000090: 23ab 20bf a0b0 3ebf 0610 423f 6d96 3f3f
000000a0: 9eca 4fbf b34a 223f 13e6 32bf 97b4 4b3f
000000b0: 224a 41bf b5f5 1c3f 225e 3f3f d3c9 4e3f
000000c0: 7a2c 37bf da53 42bf 90b4 50bf a9c5 003f
000000d0: 9679 c6be a626 09bf 43ae 3dbe 138f 463f
000000e0: 89df 463f e27e 29bf 3603 57bf b2ae 34bf
000000f0: eecc 2c3f 9d36 52bf 4664 4abf fd04 49bf
00000100: c7f8 203f bb0e 473f ec14 593f 3966 423f
00000110: 14f9 60bf 1363 57bf 9bcc 413f f69c 443f
00000120: c1b5 54bf c4cd 4cbf 75de 593f 99d0 333f
00000130: af63 af3e bc67 4f3f 5aa0 1c3f a218 3f3f
00000140: 473c 463f 67fe 3f3f 2839 4ebf 50d0 4cbf
00000150: 0484 44bf 2411 4abf 31bf 543f b135 453f
00000160: c0fb 323f ecf2 54bf 4153 afbe 0acb 2abf
00000170: 7659 4d3f beba 163f 93ca 203f 8f51 4a3f
00000180: 62f7 16bf f84e 4a3f 9d09 433f 7f6f 483f
00000190: 0914 43bf f76d 4a3f dd1d 1c3f 3aef 473f
000001a0: d42a 5dbf 0420 403f e644 2d3f 4c49 493f
000001b0: f2c9 45bf 5759 533f 6c35 5fbf 68c4 453f
000001c0: d8ec 3fbf 05e6 54bf 9883 f0be d0d6 283f
000001d0: 90ec 4bbf ab9e 403f 05d7 38bf 9c37 42bf
000001e0: b409 533f 20ce 54bf 4db1 24bf ebc1 34bf
000001f0: 39cf 4e3f 8636 573f 837a 49bf 411f 3abf
00000200: 4308 4cbf 6fe8 363f 6b6b 49bf 020b 40bf
00000210: f837 3c3f a5ad 48bf 57bb 1ebf b524 463f
00000220: 7b07 3bbf 8e42 433f 0640 593f 6303 51bf
00000230: cac1 2abf 038d 5b3f 7b0c 1cbf 4b11 303f
00000240: 897b 4dbf 315c 463f d082 443f d6cb 913e
00000250: 8bdd 1dbf e923 2cbf a1c5 613f 1c9b 12bf
00000260: bff9 333f 7624 5a3f 044a a03e c6d3 5abf
00000270: 935d 293f 1fcb 4ebf dbd5 483f 5c0a 38bf
00000280: 4eef 65bf a458 45bf 536f 55bf a48e 51bf
00000290: 917e 503f cc34 4d3f e135 2e3f af9f 543f
000002a0: fef1 2a3f f1e5 4ebf 7b41 43bf 5248 02bf
000002b0: 94b2 423f 54e7 afbe cf1f 4f3f eec6 4e3f
000002c0: fc1f 443f b22a 3c3f 9896 403f 6a3a 4bbf
000002d0: baef 4cbf 6194 3a3f 23e0 4b3f 3c6e 60bf
000002e0: cd2c 4c3f db4d 48bf ced2 403f 82f7 4d3f
000002f0: c90e 373f 9a65 5a3f 3880 5abf 7c48 583f
00000300: bb3c 2fbf 151d 343f b210 67bf 09dd 31bf
00000310: 99fe 413f a55c 5abf de5c 54bf fb94 2a3f
00000320: a2b5 4b3f 22d1 d4be f8d9 52bf f4be 3b3f
00000330: a277 3c3f ab16 533f a290 393f 1594 443f
00000340: 85fa 503f a84d 213f 7531 31bf 3f1b 543f
00000350: 7d2d 383f 4c43 493f 7970 623f fffb 3b3f
00000360: 7cd7 53bf 7b17 debe 22ae 48bf 955d 423f
00000370: 466b 523f d5fe 3b3f 3cbf 59bf d425 5fbf
00000380: 1476 41bf 0e79 34bf 965d 463f 18df 68bf
00000390: 8d50 48bf f5e4 41bf c845 4e3f c127 153f
000003a0: e1fc 323f 384b 453f 1b80 513f bfea 5cbf
000003b0: 5832 4e3f 38f3 423f fe1f 0d3f 10f9 ccbe
000003c0: eab0 473f 1ad9 41bf cd8b 5fbf 810e 353f
000003d0: 1368 62bf 086d 4fbf a166 58bf 5158 11be
000003e0: d173 42bf 873c 2f3f e39d 64bf 6125 543f
000003f0: a59b 26bf 01ff e03e 8ff9 3a3f eb35 59bf
-0.8399465 -0.82164896 -0.8119815 -0.7818245 0.36523923 0.72516656 -0.77654153 -0.78969693
-0.7437446 -0.73678017 0.7942162 0.73271775 -0.85642684 -0.7507595 0.7599833 0.772409
-0.70332074 0.6860002 -0.7725517 -0.6786919 0.7966676 0.80837214 -0.6753815 -0.7279837
0.7537179 -0.7901223 0.7391403 0.71623677 -0.76220036 -0.81846744 -0.77418363 0.78699136
-0.7575432 -0.7202449 -0.8059721 0.6944403 -0.62761134 -0.7448826 0.758057 0.74838907
-0.81168544 0.6339523 -0.69882315 0.79572433 -0.7550374 0.6131242 0.7475301 0.8077671
-0.7155224 -0.759092 -0.81525517 0.50301605 -0.38764638 -0.535746 -0.18523507 0.77562064
0.7768484 -0.6620923 -0.83989275 -0.70579064 0.675002 -0.82114583 -0.79059255 -0.78523237
0.62879604 0.7775685 0.8479755 0.7593723 -0.87880063 -0.8413555 0.7570283 0.76802003
-0.83089834 -0.80001473 0.8510507 0.7024017 0.3425574 0.8101766 0.6118218 0.7464696
0.77435726 0.7499756 -0.80555964 -0.8000536 -0.7676394 -0.78932405 0.83104235 0.7703505
0.6991539 -0.8318317 -0.34243205 -0.66716063 0.8021463 0.58878696 0.62809104 0.790307
-0.58971226 0.79026747 0.76186544 0.7829513 -0.76202446 0.79074043 0.6098307 0.78099406
-0.86393476 0.7504885 0.67683256 0.7862747 -0.7726127 0.82558197 -0.8719089 0.7725282
-0.7497077 -0.8316348 -0.46975398 0.6595278 -0.7965784 0.7524211 -0.72203094 -0.75866103
0.8243668 -0.8312702 -0.6433304 -0.70608395 0.80784947 0.8406757 -0.78702563 -0.7270394
-0.79700106 0.71448416 -0.7867953 -0.75016797 0.735229 -0.7838996 -0.6200461 0.7739976
-0.7305829 0.7627343 0.84863317 -0.8164579 -0.6670195 0.8576204 -0.60956544 0.68776387
-0.80266625 0.7748442 0.76762104 0.28475827 -0.6166617 -0.67242295 0.8819218 -0.5726793
0.7030296 0.85211885 0.3130647 -0.8547939 0.6615841 -0.8077869 0.7845132 -0.7189081
-0.89818275 -0.7708838 -0.8337299 -0.8185828 0.81443125 0.80158687 0.6805096 0.8305616
0.667755 -0.8081961 -0.7627179 -0.508916 0.7605374 -0.34356177 0.8090791 0.8077229
0.76611304 0.7350265 0.7522979 -0.7938601 -0.80053294 0.7288266 0.7963888 -0.87668204
0.7975586 -0.782438 0.7532166 0.8045579 0.71506935 0.8531128 -0.85351896 0.844856
-0.6845204 0.70356876 -0.9025985 -0.694779 0.7577911 -0.85297614 -0.82954204 0.66633576
0.79574025 -0.41565806 -0.82363844 0.73338246 0.73620045 0.82456464 0.7248632 0.76788455
0.8163226 0.6300912 -0.6921609 0.82854074 0.7194441 0.7861831 0.8845287 0.7343139
-0.8275068 -0.4337729 -0.78390706 0.75924045 0.82194936 0.7343572 -0.85057425 -0.87167096
-0.755708 -0.70497215 0.7748655 -0.90965414 -0.7824791 -0.75739986 0.8057523 0.58263785
0.6991711 0.770679 0.818361 -0.86295694 0.8054557 0.7615237 0.5512694 -0.4003377
0.78004324 -0.75721896 -0.87322694 0.70725256 -0.88440055 -0.81025743 -0.845316 -0.14193846
-0.7595797 0.6845173 -0.89303416 0.82869536 -0.65081245 0.43944553 0.73037046 -0.848479
