model_GCN_state_dict.pt (torch, 132664 bytes, 4 tensors)

conv1.bias f4 [64]
000000 e9 76 78 3e 07 2e 5d 3e 9e 3a 50 3e 39 b2 62 3e
       0.2426411 0.2159959 0.2033486 0.22138299
000010 b7 58 61 3e eb e8 9c 3d 23 66 e7 3d cd 19 c7 3d
       0.22006498 0.07661613 0.11298778 0.09721718
000020 95 67 76 3e 4a ab 6b 3e 42 a6 4d 3e d8 3f 5f 3d
       0.24062951 0.2301456 0.20082954 0.054504246
000030 39 48 82 3e 27 6c 59 3e 00 8e 70 3e b0 5e 4a 3e
       0.25445727 0.21232663 0.23491669 0.19762683
000040 58 f7 0e 3e 3b c2 2c 3e 24 ee e4 3d b2 65 4c 3e
       0.13961542 0.16870968 0.11178234 0.19960669
000050 86 87 40 3e 5f 76 5d 3e b4 35 47 3e c3 51 eb 3d
       0.18801698 0.21627186 0.1945408 0.11490204
000060 6f 42 5c 3e 34 f2 73 3d 0b 4f 45 3e c6 5e 6e 3e
       0.21509717 0.059557155 0.19268434 0.2327834
000070 18 e1 88 3e 64 c6 e5 3d 35 ae 7a 3e 4c 07 0a 3e
       0.26734233 0.11219481 0.24480517 0.13479346
000080 40 b9 fe 3d 37 44 6e 3e 5c 2f 6a 3e bf 45 3e 3e
       0.124376774 0.2326821 0.22869629 0.18581294
000090 c8 cc 2f 3e c4 81 8e 3e 35 d4 3b 3e 1f 13 55 3e
       0.17167962 0.27833378 0.1834267 0.20808075
0000a0 39 4f fe 3d df b8 4c 3e 0a 0a 62 3e d3 c9 33 3e
       0.12417454 0.19992398 0.22074142 0.17557459
0000b0 cc 85 2c 3e ea 61 42 3e 47 34 1c 3e f7 b5 01 3e
       0.16847914 0.18982664 0.15254317 0.1266707
0000c0 d5 7b 06 3e 6d 8a 2c 3e 2c 5e 64 3e 85 ca 57 3e
       0.13133176 0.1684968 0.22301549 0.21073349
0000d0 24 15 4c 3e 84 2a 32 3e 9e f0 3c 3e 79 41 1b 3e
       0.1992994 0.17399031 0.18451163 0.15161695
0000e0 45 8a 48 3e 51 c0 75 3e 8d 73 55 3e 66 2c 65 3e
       0.19583996 0.23999144 0.2084486 0.22380218
0000f0 22 98 0f 3e d5 96 27 3e 29 0d 91 3d 05 4f 11 3e
       0.14022878 0.16366132 0.07082588 0.141903

conv1.lin.weight f4 [64, 500]
000000 f0 86 90 3e a1 9b af 3e 6e d2 62 3e 44 a8 9c 3e
       0.2822795 0.34298423 0.22150585 0.30597126
000010 19 0f 4c be e3 7c 84 3e e9 35 8e 3e 58 4a 80 be
       -0.19927634 0.2587653 0.27775505 -0.2505672
000020 6b 23 d7 3e d5 4c a8 be 27 02 a7 3e fa ad eb be
       0.4201921 -0.32871118 0.3261883 -0.4603117
000030 59 c3 aa 3e 03 28 9c be 63 cb 69 be 79 6b 90 be
       0.33352163 -0.30499277 -0.22831492 -0.28206995
000040 7a 46 71 bd 3e 30 9e be 23 1b 40 be f1 e5 18 3e
       -0.058905102 -0.3089618 -0.18760352 0.14931466
000050 1a 0b 87 3e 6a b7 66 be c7 4d 7f 3e 37 b8 f0 3d
       0.26375657 -0.22530904 0.24932013 0.11753886
000060 9b 02 9f 3e eb 44 4a be 24 82 aa be b8 30 1e 3e
       0.31056675 -0.19752853 -0.33302414 0.15448272
000070 3c 97 90 be 04 ac a5 be 5a 4d bc 3e f0 95 9d be
       -0.28240383 -0.323578 0.36777765 -0.30778456
000080 a8 84 a4 3e 7a 25 74 3e e7 14 a0 3c dc 4a 04 3e
       0.3213246 0.23842421 0.019541217 0.12919182
000090 1a a1 d1 3d 0c 6a a8 3d 48 02 7c be de c8 1d be
       0.10235806 0.08223352 -0.24610245 -0.15408656
0000a0 df 1b 8e be d5 8c 9c bd 62 7a 6e bd 0a 0c 31 be
       -0.2775564 -0.07644049 -0.058222182 -0.17289749
0000b0 1e b1 8b bd 3b 0d f4 3d 52 ce 1d 3e a3 61 63 be
       -0.06820892 0.11916586 0.15410736 -0.22205214
0000c0 0b e5 5c 3e 9b db 51 bd f9 8f 5b be 76 72 9b be
       0.21571748 -0.051234823 -0.2144164 -0.30360764
0000d0 3c 11 2c 3d d8 ad 6c be c3 46 6b 3c fa 00 65 3d
       0.042008623 -0.23113191 0.014360133 0.055909134
0000e0 c5 4b 2c be 17 b1 c9 3c 09 5e 1f 3e f6 0b ab 3d
       -0.16825779 0.024620576 0.15563215 0.08351891
0000f0 67 23 01 3e f8 58 13 3e 04 62 b0 be cd 9b 63 be
       0.12611161 0.14389408 -0.3444978 -0.22227402
000100 66 72 38 3e 7d fb c3 3c 84 fe 35 3e 9b 0e 4c be
       0.1801239 0.02392363 0.17772871 -0.19927447
000110 5d 0b 8a be dc 08 b3 3e 7a ad 90 be 7a 86 99 3e
       -0.26961794 0.34967697 -0.28257352 0.2998541
000120 0e 84 96 be 7d 21 53 3e 5a 89 b3 3c e3 0a 97 3e
       -0.29397625 0.20618244 0.02191608 0.29500493
000130 c7 2e 81 be 60 b1 cf 38 15 92 2e be 02 3a 83 be
       -0.25231 9.903568e-05 -0.17047913 -0.25630194
000140 7d 41 87 3e c5 91 85 3e fa 08 cb bd 9a 9f 2a be
       0.2641715 0.26087776 -0.099138215 -0.16662446
000150 a3 7d 81 bd 75 c5 8e be 14 34 1d be 89 eb 77 3d
       -0.063227914 -0.27885023 -0.15351897 0.06052736
000160 92 16 01 be a1 71 15 3e 85 49 1f 3e 33 ab d2 bd
       -0.12606266 0.14594127 0.15555389 -0.1028656
000170 d3 4d d4 bb 38 ff 51 3e 8d 83 80 be 62 1d 30 bc
       -0.006479004 0.20507514 -0.25100365 -0.010749193
000180 19 f1 54 be ab 1f 59 bc b9 7e 65 3e 4a 31 b4 3d
       -0.20795096 -0.013252179 0.22411622 0.08798464
000190 4b df 2e 3e d7 ed b1 bd 48 82 7b 3e ea 7b 79 3d
       0.17077367 -0.086879425 0.24561417 0.06090919
0001a0 67 40 8d be c6 f7 11 be b2 4f 47 be 0b c5 66 be
       -0.27588198 -0.14254674 -0.19463995 -0.22536103
0001b0 7a dc 46 be 01 d0 9b bd 48 6e 12 3e 12 ad 15 bd
       -0.19420043 -0.07608033 0.14299881 -0.036542006
0001c0 93 cd 69 bc f6 15 ab 3c 60 c9 46 3e 39 e7 d0 3d
       -0.014270204 0.020884495 0.19412756 0.10200352
0001d0 39 cc bd 3e cd 3f 29 3e 96 6f 7c 3d cd 38 04 3d
       0.37069872 0.16528244 0.061629854 0.032280732
0001e0 65 a9 68 3e a6 ef 78 be bd 6b 83 3e da b9 44 be
       0.22720869 -0.24310169 0.25668135 -0.19211522
0001f0 70 0f 65 3e d8 71 82 be e0 36 5d 3d ce 67 da bd
       0.2236917 -0.2547748 0.05400741 -0.106643304
000200 7a b3 98 bd d0 4a ea 3c a5 28 81 be 8b 83 88 bd
       -0.074561074 0.028600127 -0.25226322 -0.06665715
000210 4a 10 3b 3e 52 4f 2a 3e 3c 64 6d be f2 e8 82 3e
       0.18267933 0.16631821 -0.23182768 0.25568348
000220 48 00 f2 3c 05 36 4b 3e 29 6c 3e bd 22 f3 33 be
       0.02954115 0.19844826 -0.04648987 -0.17573217
000230 3c a8 2e be c5 90 bb 3d fa 12 e5 bd b5 77 1d 3e
       -0.17056364 0.09158472 -0.1118526 0.15377696
000240 21 40 07 3e 26 1f 4f 3e cd fa 97 bc 8a be 3b be
       0.13208057 0.20226726 -0.018552208 -0.18334404
000250 0b e6 aa 3e 95 0c 48 3d b1 11 c8 3d b0 62 a4 3d
       0.33378634 0.048840124 0.09768999 0.08026636
000260 53 1e 95 bd 06 14 d3 3d 4b 3b 48 3d 2e cd 60 3e
       -0.072811745 0.103065535 0.04888467 0.2195327
000270 a1 a3 53 be 83 18 bf bd 8e 8d 37 3e f6 35 d1 3d
       -0.20667888 -0.09330847 0.17925093 0.1021537
000280 e0 69 16 be 0f ab 3c bc 4b d2 21 be 99 e6 fa 3d
       -0.14688826 -0.011515393 -0.15802877 0.12251014
000290 07 5e 26 bd b3 a3 7f be 5c 99 55 3e 53 15 2f be
       -0.040617015 -0.2496479 0.20859283 -0.17097978
0002a0 f7 d6 ab 3d 5d e2 86 3e 3f 6e 04 bc 3d f1 80 3e
       0.08390611 0.26344576 -0.008082925 0.2518405
0002b0 ff d7 56 be f0 10 20 3e 6a b0 84 3e dd 2d 87 3d
       -0.20980833 0.15631461 0.25915843 0.066005446
0002c0 38 74 68 3d 3a 41 56 be 49 12 28 be e9 e6 1a be
       0.05675146 -0.2092332 -0.16413225 -0.15127148
0002d0 ee 3b fc 3c e5 bf e1 bd 6a 92 09 3d 6a f0 99 3e
       0.030790295 -0.11022929 0.033586897 0.30066234
0002e0 08 58 a5 3d 6d b4 de 3b 69 aa c7 3e 6d 34 4c 3c
       0.08073431 0.006796411 0.389972 0.012463671
0002f0 53 e5 21 be cb 99 5f be b5 33 f6 bd aa 8a 0f 3e
       -0.15810136 -0.21836011 -0.12021581 0.1401774
000300 8c 34 6f 3e 9a 1d 6a 3e 8e 80 3c 3c 6b ab 48 3e
       0.23359889 0.22862855 0.011505259 0.19596641
000310 da 2b 51 be ff f8 13 3e cf eb 2f be a4 92 55 bd
       -0.20426884 0.14450453 -0.17179798 -0.0521418
000320 eb 4b af bd 07 9d 34 be d4 88 99 3e d3 10 87 be
       -0.08559402 -0.17638026 0.29987204 -0.26380023
000330 91 b1 da 3b d8 87 e6 3d fa 11 2b be 60 97 84 bd
       0.0066739996 0.11256379 -0.16706076 -0.06474185
000340 6e b4 05 3e 4e ed 2c 3e 25 2b 7e 3e 7a be 31 bb
       0.1305711 0.168874 0.24821146 -0.002712159
000350 e3 57 a5 bc 11 a6 46 be f4 7a 9d bc 3d d3 32 3e
       -0.02018351 -0.19399287 -0.019223668 0.17463394
000360 c4 59 12 be b3 c6 24 be 67 bf 80 be 26 8b 6c 3d
       -0.14292055 -0.16091423 -0.25146028 0.05774989
000370 28 13 9e be f2 78 c4 bc 2d c1 99 3e fb 01 8c 3d
       -0.3087399 -0.023983452 0.30030194 0.06836315
000380 2d 13 40 3e 1a de d0 3d 2c bd 16 be 00 4a 04 be
       0.18757315 0.101986125 -0.14720601 -0.12918854
000390 91 31 ec bc bf 69 5a 3d f9 f5 ac 3d 88 06 23 3e
       -0.028832229 0.053323504 0.08445353 0.1592046
0003a0 17 25 29 3d e6 0b 83 3e 4a 74 d2 bd 74 f8 2f 3e
       0.041295137 0.25595015 -0.10276087 0.17184621
0003b0 4f 8a 96 3e e8 78 25 bd 3a aa 87 be c6 89 60 3d
       0.29402396 -0.04039851 -0.2649706 0.05481889
0003c0 68 32 b2 bd 41 51 96 be 55 4c 35 3d 4e 04 0d be
       -0.087010205 -0.29358867 0.04426225 -0.13771173
0003d0 3a 1b 82 3e 8d f7 0b 3e 38 72 59 3e f2 a7 4c 3e
       0.25411397 0.13668652 0.21234977 0.19985941
0003e0 ac a5 f0 bd b7 09 9b 3e 07 c9 67 be 14 4f 80 be
       -0.117503494 0.3028085 -0.2263528 -0.25060332
0003f0 74 ef 3f 3e 7e ee e0 3d 7f c6 34 be 74 c3 33 3e
       0.18743688 0.10982989 -0.17653845 0.17555028

conv2.bias f4 [8]
000000 19 2b 16 3e 94 d5 dd 3d c9 c5 04 be 49 e6 1d be
       0.14664878 0.108317524 -0.12966074 -0.15419878
000010 9f 10 37 be 1d f5 dc bc 73 40 0a be 71 67 18 be
       -0.17877434 -0.026972348 -0.13501148 -0.1488321

conv2.lin.weight f4 [8, 64]
000000 5e 0f d3 3e d1 71 05 3f 57 dd c3 bd d3 ff 04 3f
       0.41222662 0.52126795 -0.095637016 0.51952857
000010 e8 c5 02 3f fc ab ef be 79 6c d2 be 67 67 07 bf
       0.5108323 -0.468109 -0.41098383 -0.52892154
000020 7c 1d b7 3e 36 4a 2f 3e 52 03 0f 3f 55 98 c2 be
       0.35764682 0.17118153 0.5586444 -0.38006845
000030 ee d6 b2 3e 22 e1 89 ba 44 d0 97 3e fc de 12 3f
       0.34929603 -0.0010519365 0.29651082 0.573715
000040 a2 58 4a be 6b 04 05 3e 23 c6 1d bf 37 7d d3 3e
       -0.19760373 0.12989967 -0.6163046 0.4130647
000050 d7 0f 22 3c d4 b4 01 3f 08 38 07 3f fd c4 8f be
       0.009891472 0.50666547 0.5281987 -0.28079978
000060 eb 44 cc 3e c8 8c fd be af 54 ab 3e ec 4e b8 3e
       0.3989633 -0.4952147 0.33463046 0.35997713
000070 03 0f c8 3e 15 c8 f3 be 14 ab d6 3e c5 34 8a be
       0.39073953 -0.47613588 0.41927397 -0.26993385
000080 ea 9c 19 bf 9d c0 a0 3e ce 03 f9 3e f6 ab 63 3e
       -0.60005057 0.31396952 0.48635715 0.22233567
000090 8e 31 00 3f a0 94 e7 3e 58 9e f9 be 2d 19 d8 3e
       0.50075614 0.4523058 -0.4875362 0.42206708
0000a0 85 ed 0a bf 6d 9a ad 3e d9 3d 05 3f 82 8a 12 3f
       -0.54268676 0.3390688 0.520475 0.57242596
0000b0 3c 50 a0 be be de 05 3f bc 8e 68 3d 7a 25 0e bf
       -0.31311214 0.52293 0.056776747 -0.55525935
0000c0 15 56 0a bf 1e 59 b8 bd 4b 2b 89 3e 28 32 16 3f
       -0.540376 -0.09001373 0.26790842 0.5867028
0000d0 7c 55 11 3f d4 32 0f 3e 99 53 0d 3f 7c d4 16 bf
       0.56771064 0.13984233 0.55205685 -0.58917975
0000e0 ae 27 c0 be e2 b0 09 3f 43 20 8a 3e fd c1 e0 3e
       -0.37530273 0.53785527 0.2697774 0.43898
0000f0 6c 7f c1 bd 4a 43 ee be 6e dd 15 bf 00 c9 6d be
       -0.09448132 -0.46535712 -0.58541 -0.23221207
000100 93 4a 05 be f6 db 1c 3f b5 55 13 3f 2f 27 18 3f
       -0.13016729 0.61273134 0.57552654 0.5943479
000110 a6 19 d2 3e c5 ac a2 be 5f a1 17 3f 4e c6 0d 3f
       0.41035193 -0.31772438 0.5923061 0.55380714
000120 dd d3 95 3e 2c e6 b2 3e fc bb 93 be 8d a1 04 bf
       0.292632 0.34941232 -0.28854358 -0.51809007
000130 9d e9 cb 3e 9c 91 1d 3f 8e f4 be be f2 86 b7 3c
       0.3982667 0.6155031 -0.37295955 0.022403214
000140 33 db 0f 3f e9 c6 17 3f e0 a8 db be c9 74 11 bf
       0.56193846 0.5928789 -0.4290228 -0.56818825
000150 9a fe b8 3e 4c 7a e5 be 39 2b 1d bf 84 a2 11 bf
       0.36131746 -0.44819868 -0.6139408 -0.56888604
000160 6a 56 0b bf 34 4f 2c bf 28 c4 21 bf 93 4a f4 3e
       -0.5442873 -0.67308354 -0.63189936 0.47713146
000170 c5 e9 3c bd 9f 62 05 3f 3c 38 84 bd 0f e9 39 bf
       -0.046121377 0.5210361 -0.06456038 -0.72621244
000180 f8 aa f1 be af 26 e1 be bc da 0c be 3b 20 08 3f
       -0.4720075 -0.43974826 -0.13755316 0.5317418
000190 53 89 0d bf 15 2f 03 3f e8 8c 5c 3e a8 af f1 be
       -0.55287665 0.51243716 0.21538126 -0.47204328
0001a0 d0 7b 13 3f 7f 31 02 bf 99 99 9c 3c f7 49 e5 be
       0.576108 -0.50856775 0.01911621 -0.44782993
0001b0 24 76 ff 3e e5 e1 05 bf 17 a3 21 3f 67 11 a2 3e
       0.49894822 -0.5229781 0.6313948 0.31653902
0001c0 75 a7 9f 3e 05 03 1e 3f a4 06 30 bf 23 da a7 bd
       0.31182447 0.6172336 -0.6876013 -0.08195903
0001d0 da 3f 99 be bf 68 0d 3f ac bf f4 be 89 ac 86 3d
       -0.29931527 0.55237955 -0.47802484 0.06575877
0001e0 09 4d b5 3e 66 7d 9f 3e 66 47 22 bf 19 3f 0a 3f
       0.35410336 0.3115036 -0.63390195 0.5400253
0001f0 60 1f 10 3f 47 3e 0c 3f 1f 17 a8 be 33 8f 06 3f
       0.56297874 0.5478253 -0.3283014 0.52562255
000200 02 60 d7 3e 31 c0 96 be ae e7 38 3e 6e 6a 88 3e
       0.42065436 -0.29443505 0.18057129 0.266437
000210 4e 57 0e bf d2 3e f5 3e df 4f f9 3d 13 b7 e8 be
       -0.55601966 0.4789949 0.12173437 -0.45452175
000220 5a d9 1c bf 4f 8b 1f bf f4 b4 ab 3d 52 14 0e 3f
       -0.6126915 -0.62321943 0.083841234 0.55499756
000230 c1 af 6a be f1 4c 9a 3d 39 aa 95 bd c4 0f 11 bf
       -0.22918607 0.07534207 -0.07307858 -0.5666468
000240 bf 81 0d 3f fc e7 04 be 81 8a 26 3f 6e 71 20 bf
       0.552761 -0.1297912 0.6505509 -0.6267308
000250 1c f7 f8 be d8 cd 07 3e ee fb e1 be 57 39 19 3f
       -0.4862603 0.13262117 -0.4413752 0.5985312
000260 f4 f4 0f bf cc 84 08 bf 41 ba 20 3f 8e f9 72 be
       -0.56233144 -0.5332763 0.627842 -0.2372801
000270 07 95 cf be f6 22 b5 3b 24 27 14 3f 69 cf d3 3e
       -0.40543386 0.0055278493 0.57872224 0.4136918
000280 89 d6 9d 3e ef f9 bc 3d 7d 92 e0 be 63 3c 13 bf
       0.3082774 0.092273585 -0.43861762 -0.5751402
000290 ca 58 08 bf cb c4 03 be 74 dc d8 3d a9 0f 22 be
       -0.5326048 -0.1286804 0.10588923 -0.15826286
0002a0 de 62 2c bf b3 0a 0b bf 57 65 b0 be ee aa e1 be
       -0.6733836 -0.543132 -0.34452316 -0.44075722
0002b0 ee 99 99 3e e1 14 1d 3d 47 79 06 bf 68 7b 20 3f
       0.30000252 0.03834999 -0.52528805 0.62688303
0002c0 77 13 1e 3f 2b ef ef 3d e6 66 0f bf 00 82 d3 be
       0.6174845 0.117155395 -0.56016386 -0.4131012
0002d0 57 a8 84 3e d1 b8 9c be ab 7b d0 3e bf d0 4a bf
       0.25909683 -0.30609754 0.4071935 -0.7922477
0002e0 42 9c b2 3d 79 ef 66 be 05 91 07 bf a5 d2 1a bf
       0.0872121 -0.22552289 -0.5295566 -0.6047767
0002f0 41 19 08 bf c8 d6 20 bf 40 0b 31 bf 5a 9a 22 bf
       -0.53163534 -0.6282773 -0.6915779 -0.6351677
000300 94 5f 2c 3e 10 d9 7a be 86 9d ce be 1a f6 8c be
       0.16833335 -0.24496865 -0.40354556 -0.2753151
000310 f5 1a 8c 3d 98 75 f9 3e 60 78 1d bf 7d e2 80 3e
       0.06841079 0.4872253 -0.615118 0.25172797
000320 3d a9 a1 be 91 fc aa be 0d 27 7b 3e 5c af 08 bf
       -0.3157443 -0.33395818 0.24526615 -0.5339258
000330 a8 c8 02 be 22 8c db be 9e 64 50 3e 89 d0 f0 be
       -0.12771857 -0.4288035 0.20350882 -0.470341
000340 39 bb 4b be cd 6f c1 39 07 3d d8 3e 71 21 97 be
       -0.19895639 0.00036895127 0.4223406 -0.295177
000350 f0 af 27 be c6 dc d2 be e4 59 07 be 1c 2c 3c 3e
       -0.16375709 -0.41184062 -0.13217884 0.18376201
000360 d0 55 ed bd 3d 2c 1d 3f 76 48 20 bf b5 df 87 be
       -0.11588633 0.6139563 -0.62610567 -0.26537862
000370 36 01 d4 be 45 07 09 bf fa 21 90 be 4b ea 70 3e
       -0.41407174 -0.5352672 -0.28150922 0.23526876
000380 48 67 e4 3e dd 9e 7b bd 85 88 04 bf 49 79 e2 be
       0.44610047 -0.0614308 -0.5177081 -0.44233158
000390 ae 21 fb bd ff 61 f5 3c 0e f3 37 bf 38 05 b6 be
       -0.12262283 0.029953955 -0.7185525 -0.35550857
0003a0 67 06 d2 3e 88 8d ad 3e 66 31 12 bf f0 8e 13 be
       0.4102051 0.33897042 -0.57106626 -0.14409995
0003b0 df 1f eb be 5a dc 07 bf 90 1a c6 be 52 c0 a3 be
       -0.45922753 -0.53070605 -0.3869214 -0.31982666
0003c0 69 7a 09 bf f9 83 14 bf 78 d3 2d 3e a2 5d ac bc
       -0.5370241 -0.58013874 0.169752 -0.021040741
0003d0 16 e3 c2 bd 84 60 8e bd e9 8b cb bd 3f 20 1e bf
       -0.095159695 -0.06952003 -0.09938795 -0.61767954
0003e0 55 80 1f bf b6 c3 10 bf b4 64 03 bd f1 98 41 3c
       -0.62305194 -0.5654863 -0.03207846 0.011816249
0003f0 4e d5 6c be 3e c8 1d 3e 8d d0 04 3f 99 e6 aa be
       -0.23128244 0.15408418 0.51880723 -0.33379057
