model_lstm_state_dict.pt (torch, 288074 bytes, 12 tensors)

lstm.weight_ih_l0 f4 [256, 64]
0.023505047 0.043683518 -0.042614877 -0.080417074 -0.03365944 -0.06354583 -0.19927633 0.43077
0.27522597 -0.097058386 -0.07487102 -0.53460425 -0.2604112 0.13107483 -0.10579479 0.041454386
0.46765718 -0.0049400385 0.78120565 0.11610839 0.16776884 0.10414481 -0.4038467 -0.29635486
-0.011736871 0.16999343 0.07794928 -0.317806 -0.17272289 0.63478154 0.22864622 -0.15948342
0.23350434 -0.15401635 -0.21126741 0.31759018 0.00083288725 0.0359585 0.16091178 -0.123659424
-0.2187474 0.5917388 0.2697357 0.093247175 -0.2528158 0.005214728 -0.36020213 -0.12866092
-0.17780662 0.10779903 -0.21522579 0.41516593 0.027003357 -0.15440239 -0.06150648 0.19211592
-0.45749572 0.1114705 0.40021238 0.016513167 0.017519081 0.32594618 -0.020183379 -0.29606983
0.06782108 -0.20531562 -0.28072438 0.011669251 0.08307471 0.00037458618 -0.6133726 0.05543587
0.19125938 0.069587894 0.0501429 0.3362833 -0.81262165 -0.59834856 -0.017071748 0.13985388
-0.045501824 -0.7999635 -0.28804013 0.041390035 -0.60601336 0.01057585 0.13545343 0.019821504
-0.4722961 -0.26788366 -0.18222044 -0.44633967 -0.035390124 -0.55543476 -0.06107072 -0.08981989
-0.34837025 -0.34300083 -0.16380474 0.0041336846 0.47938132 -0.5186637 -0.37009302 0.18378432
0.3702083 -0.3419994 -0.55445856 0.21077202 0.18389045 -0.379252 0.905023 -0.05565367
-0.42090353 -0.29462454 0.7037111 0.045238566 0.21160355 0.15418433 -0.0036825328 -0.09659608
0.22643293 -0.52784127 -0.5072005 -0.1743109 -0.38808584 -0.99010074 0.125524 0.18031576
0.18540119 -0.12156373 -0.4216971 0.22645894 -0.42734587 0.109564364 -0.09586228 0.3271988
-0.2142826 0.07333219 0.05398259 0.42875844 -0.17893161 0.12167934 0.3540173 -0.47489214
0.19493347 -0.19173777 0.0026212507 0.48203996 -0.08160389 0.85955787 -0.061530348 0.21718235
0.08430768 -0.15951762 0.3813941 0.34358633 -0.032974865 -0.2323629 0.46677494 0.53129673
0.014952028 0.021485696 -0.075482495 -0.45416096 -0.04536379 0.45535564 -0.14615391 0.3745442
0.13056092 -0.01993 0.4085489 -0.009809681 -0.04456725 -0.29867753 0.26709202 -0.12106271
0.682872 -0.017469574 0.20342022 -0.09554947 -0.6485212 0.41567132 -0.61832595 -0.08701863
-0.21988875 -0.22659875 -0.45937273 -0.097850785 0.37160447 0.38439825 0.19789408 0.15634455
-0.19569206 -0.4109271 0.08681956 -0.4669839 0.2460998 0.052049674 0.07656311 0.13248542
0.32292977 0.08292951 -0.10300646 0.07994714 0.06880602 0.45790216 0.13081951 -0.051836997
-0.01922431 -0.0075842417 0.0302498 0.12088866 -0.3301347 -0.37068385 0.3328796 0.332521
0.33209255 0.2805647 -0.06921645 -0.14959486 -0.3381108 0.47028962 0.25676602 -0.31863973
0.50945604 -0.03176234 0.5047089 -0.2936072 0.07920284 -0.18160255 0.21251446 0.08213282
0.03678099 0.013654485 -0.25641972 -0.49468318 0.297515 0.20038737 -0.18612187 -0.17152809
-0.3325371 0.052112978 0.042119004 -0.18892072 -0.13901283 -0.061598964 -0.18563005 0.067651786
0.24524741 -0.21030504 -0.17538397 -0.062248178 -0.7042902 -0.39847326 0.3041014 -0.12114795
00000000: a88d c03c 7ded 323d f08c 2ebd b5b1 a4bd
00000010: 7bde 09bd 5124 82bd 180f 4cbe e38d dc3e
00000020: 6bea 8c3e 8cc6 c6bd fa55 99bd d3db 08bf
00000030: 9e54 85be 7b38 063e f0aa d8bd 13cc 293d
00000040: c370 ef3e 0ce0 a1bb 18fd 473f 3cca ed3d
00000050: 98cb 2b3e e049 d53d ffc4 cebe d3bb 97be
00000060: 014c 40bc c212 2e3e dfa3 9f3d 78b7 a2be
00000070: 45de 30be 0b81 223f 3c22 6a3e 9f4f 23be
00000080: c31b 6f3e 76b6 1dbe 7c56 58be 2e9b a23e
00000090: 1e56 5a3a 3849 133d 0fc6 243e 2741 fdbd
000000a0: 52ff 5fbe 327c 173f cc1a 8a3e 60f8 be3d
000000b0: 1371 81be 4fe0 aa3b 6a6c b8be b0bf 03be
000000c0: f012 36be bdc5 dc3d 2664 5cbe a190 d43e
000000d0: 2536 dd3c a91b 1ebe 38ee 7bbd 09ba 443e
000000e0: e13c eabe a54a e43d a3e8 cc3e 9f46 873c
000000f0: 2d84 8f3c 6be2 a63e 9d57 a5bc 7796 97be
00000100: c7e5 8a3d 423e 52be 1bbb 8fbe 6330 3f3c
00000110: 1323 aa3d 1b64 c439 fd05 1dbf b910 633d
00000120: 80d9 433e 1984 8e3d a462 4d3d 532d ac3e
00000130: f907 50bf 5f2d 19bf 0dda 8bbc db35 0f3e
00000140: 1f60 3abd 68ca 4cbf ff79 93be 9988 293d
00000150: b123 1bbf 5446 2d3c 4eb4 0a3e b560 a23c
00000160: cbd0 f1be 0c28 89be ff97 3abe a286 e4be
00000170: 3cf5 10bd f930 0ebf 4b25 7abd 7ef3 b7bd
00000180: 965d b2be ce9d afbe 6ebc 27be dc73 873b
00000190: 7871 f53e 25c7 04bf d57c bdbe f531 3c3e
000001a0: f18b bd3e 8c1a afbe fff0 0dbf 9fd4 573e
000001b0: c74d 3c3e 512d c2be 96af 673f 1af5 63bd
000001c0: ab80 d7be 07d9 96be 6926 343f 134c 393d
000001d0: 9aae 583e 7fe2 1d3e a656 71bb 2ad4 c5bd
000001e0: 09de 673e 9b20 07bf e4d7 01bf 8e7e 32be
000001f0: 30b3 c6be 3e77 7dbf 5d89 003e b2a4 383e
00000200: cfd9 3d3e 68f6 f8bd afe8 d7be dae4 673e
00000210: 14cd dabe 4863 e03d 7153 c4bd 9a86 a73e
00000220: e66c 5bbe 302f 963d d91c 5d3d 3a86 db3e
00000230: d939 37be 0533 f93d c141 b53e 1025 f3be
00000240: a49c 473e e856 44be 4ac9 2b3b f1cd f63e
00000250: f11f a7bd fc0b 5c3f 3f07 7cbd 0d65 5e3e
00000260: 81a9 ac3d 9658 23be 1646 c33e 8cea af3e
00000270: a710 07bd 8af0 6dbe 20fd ee3e 1003 083f
00000280: 5af9 743c c502 b03c 9196 9abd c987 e8be
00000290: 62cf 39bd 6024 e93e 5fa9 15be 42c4 bf3e
000002a0: c3b1 053e 3d44 a3bc 522d d13e c9b8 20bc
000002b0: 268c 36bd 43ec 98be 49c0 883e baef f7bd
000002c0: b3d0 2e3f 5a1c 8fbc 644d 503e 71af c3bd
000002d0: 7c05 26bf dfd2 d43e 9c4a 1ebf d336 b2bd
000002e0: 842a 61be 8109 68be e732 ebbe fe65 c8bd
000002f0: f142 be3e d9cf c43e bfa4 4a3e c918 203e
00000300: 8063 48be 0965 d2be 74ce b13d 8418 efbe
00000310: 9601 7c3e 0a32 553d 1fcd 9c3d 42aa 073e
00000320: 0d57 a53e f2d6 a93d 0df5 d2bd 53bb a33d
00000330: 2cea 8c3d 2772 ea3e 8df5 053e 0853 54bd
00000340: 4d7c 9dbc 3b85 f8bb 6ece f73c 7994 f73d
00000350: 6a07 a9be 46ca bdbe 326f aa3e 3140 aa3e
00000360: 0908 aa3e 2da6 8f3e 5bc1 8dbd 652f 19be
00000370: dc1c adbe cdc9 f03e d676 833e bf24 a3be
00000380: b66b 023f 3a19 02bd 9a34 013f af53 96be
00000390: 1935 a23d 05f6 39be 649d 593e 4035 a83d
000003a0: aaa7 163d 10b7 5f3c 7249 83be 1d47 fdbe
000003b0: e353 983e 5932 4d3e bb96 3ebe 0fa5 2fbe
000003c0: 4e42 aabe 6b74 553d fa84 2c3d 6f74 41be
000003d0: 6159 0ebe 324f 7cbd ce15 3ebe 058d 8a3d
000003e0: 2322 7b3e 345a 57be db97 33be f2f7 7ebd
000003f0: 5d4c 34bf b004 ccbe 2eb3 9b3e 6b1c f8bd

lstm.weight_hh_l0 f4 [256, 64]
0.21226856 0.11136592 0.45417535 -0.117120504 -0.1344458 -0.01639592 -0.10556337 0.10695373
-0.30233783 -0.604422 0.25985676 0.23588449 0.4101694 0.20670667 0.2238859 0.73715043
0.11753906 0.49058467 0.115197346 0.25350794 0.74083227 -0.0041441214 -0.08894733 0.5093895
-0.24682225 -0.018924516 -0.049244754 -0.24505545 0.33729333 0.17004293 0.24857321 0.5397544
0.20186277 0.5649854 0.156527 -0.72136265 0.17832047 -0.04136109 -0.21287575 -0.5736233
-0.18143696 -0.24745984 0.122607686 0.170688 0.18794942 0.16220047 -0.26223323 -0.49635845
0.57517064 0.5099552 0.20188549 -0.020678423 -0.34536904 -0.18632922 0.4309597 0.5224405
0.48358804 -0.0073834523 0.99567527 -0.36965358 0.04442386 0.037939735 -0.14118865 -0.638325
0.12523939 -0.010662677 -0.13079937 -0.39554334 -0.19961712 -0.14501475 -0.012911935 0.0014274999
-0.12296617 -0.05688203 0.14567201 0.039119832 0.34932736 -0.07733174 -0.09738717 -0.0763087
-0.040660314 -0.50807863 0.062105026 0.07865759 -0.07901439 -0.1480549 -0.903483 0.0065155197
-0.34433305 0.01855603 0.12401162 -0.14100686 -0.08453054 0.26408553 0.25910863 0.56039417
-0.060771793 -0.032762915 0.0023510272 -0.045433484 -0.06603968 -0.16514382 -0.18708037 -0.022020202
-0.2343525 0.23902653 0.18716574 -0.06382047 0.009056166 0.36738282 0.19414286 -0.33933258
0.46663812 0.43982568 0.01646465 -0.20334601 -0.39730197 0.09132382 0.24038063 0.11413015
0.04837372 -0.1658982 -0.14347184 -0.26162204 -0.23432074 -0.28908208 -0.3980145 -0.39485732
-0.819718 0.4895301 0.46616587 0.08605747 -0.39587766 0.3048612 0.32420793 -0.18798596
-0.19588439 -0.24617957 0.32054856 0.62250936 0.6220993 -0.08114883 -0.31272286 -0.610072
0.0938019 -0.10071887 -0.48122483 -0.349033 0.15514046 -0.5797663 0.044665538 -0.93838966
0.33044884 0.07151497 0.08129329 -0.035195407 0.19452189 -0.29316384 0.22455955 -0.14291984
-0.15934299 0.41123584 0.06794266 0.10263409 -0.13085121 0.23285273 -0.16127959 -0.29753026
-0.06773722 -0.2813795 0.31443954 0.51220477 -0.54507565 0.27194747 -0.4610923 0.15589851
-0.23505071 0.33758402 0.28221777 0.6087513 -0.56725925 0.5142109 0.15968655 0.011914895
0.12488132 0.07995057 0.035366915 -0.63641596 0.18938372 0.24657546 -0.12489733 -0.32547247
0.008165647 -0.4203051 0.2676644 -0.26607126 0.24930133 0.08279904 -0.3195999 -0.34600243
0.058016166 -0.06294592 -0.17362328 -0.08982949 0.1258085 -0.17376009 -0.07070734 0.08303797
0.21604148 0.3599991 -0.19035397 -0.1256379 -0.3093162 -0.018694662 0.100148864 0.42411575
-0.37007335 -0.37291008 0.11694468 -0.15135689 0.00028782393 -0.43905604 -0.63667077 -0.32542384
0.00227156 -0.36583677 0.0860785 -0.035771813 0.3438093 0.08494916 -0.011200507 0.43457466
0.3277516 0.05428059 0.19740848 0.18191639 0.50546545 0.015708338 0.054858547 -0.31353182
0.09040924 -0.06680239 0.028077053 0.18923795 -1.062939 0.2865365 0.31590152 -0.10688491
0.15121734 0.044139218 0.17139383 0.25340986 0.13755925 0.08415857 -0.02196388 -0.62570655
00000000: ee5c 593e d113 e43d ac89 e83e e0dc efbd
00000010: 29ac 09be bd50 86bc 9c31 d8bd 8f0a db3d
00000020: 06cc 9abe 66bb 1abf f20b 853e b48b 713e
00000030: b901 d23e eaaa 533e 5842 653e e4b5 3c3f
00000040: 52b8 f03d ea2d fb3e 96ec eb3d cbcb 813e
00000050: 2fa7 3d3f 69cb 87bb 052a b6bd 5a67 023f
00000060: f9be 7cbe 9607 9bbc deb4 49bd d1ef 7abe
00000070: b6b1 ac3e bc1f 2e3e fa89 7e3e 582d 0a3f
00000080: 1db5 4e3e e2a2 103f 9d48 203e 39ab 38bf
00000090: a499 363e 3f6a 29bd 1afc 59be fad8 12bf
000000a0: 9cca 39be 1d66 7dbe bd19 fb3d d6c8 2e3e
000000b0: d075 403e e117 263e 6f43 86be b222 febe
000000c0: 623e 133f 6d8c 023f 12bb 4e3e cc65 a9bc
000000d0: 36d4 b0be 16cd 3ebe c0a6 dc3e a9be 053f
000000e0: da98 f73e e3f0 f1bb 93e4 7e3f 3c43 bdbe
000000f0: cbf5 353d b266 1b3d c293 10be 4469 23bf
00000100: c13e 003e 82b2 2ebc 45f0 05be a884 cabe
00000110: 6e68 4cbe bf7e 14be 958c 53bc f31a bb3a
00000120: b0d5 fbbd 22fd 68bd 0b2b 153e 1e3c 203d
00000130: 09db b23e 1a60 9ebd ed72 c7bd bc47 9cbd
00000140: 6e8b 26bd 7111 02bf d761 7e3d 3b17 a13d
00000150: 4cd2 a1bd b49b 17be a94a 67bf 2480 d53b
00000160: 6c4c b0be d102 983c cef9 fd3d 1a64 10be
00000170: 591e adbd 3836 873e e3a9 843e fe75 0f3f
00000180: d8eb 78bd 6832 06bd b113 1a3b 7618 3abd
00000190: d03f 87bd 761b 29be ff91 3fbe b663 b4bc
000001a0: 1afa 6fbe 5fc3 743e 60a8 3f3e 4eb4 82bd
000001b0: 5060 143c 9a19 bc3e 63cd 463e 00bd adbe
000001c0: 31eb ee3e d530 e13e e0e0 863c f039 50be
000001d0: 2a6b cbbe fc07 bb3d 5726 763e 11bd e93d
000001e0: 8623 463d 38e1 29be 48ea 12be 53f3 85be
000001f0: c7f1 6fbe 9102 94be 8ec8 cbbe bd2a cabe
00000200: 0ad9 51bf b0a3 fa3e 4bad ee3e e63e b03d
00000210: 7ab0 cabe c416 9c3e 95fe a53e 647f 40be
00000220: eb95 48be 7f16 7cbe f11e a43e c65c 1f3f
00000230: e641 1f3f 5c31 a6bd 361d a0be ae2d 1cbf
00000240: 361b c03d b245 cebd 1a63 f6be 74b4 b2be
00000250: 24dd 1e3e 906b 14bf 36f3 363d 4e3a 70bf
00000260: 9730 a93e 7176 923d 197d a63d 0f29 10bd
00000270: bf30 473e 9219 96be f0f2 653e 9459 12be
00000280: cf2a 23be 818d d23e 8525 8b3d d231 d23d
00000290: dcfd 05be f270 6e3e 7a26 25be e355 98be
000002a0: d0b9 8abd f910 90be 38fe a03e da1f 033f
000002b0: 148a 0bbf b33c 8b3e 4a14 ecbe dca3 1f3e
000002c0: 22b1 70be d0d7 ac3e d97e 903e 20d7 1b3f
000002d0: e737 11bf 53a3 033f df84 233e b136 433c
000002e0: c7c1 ff3d 20bd a33d e6dc 103d 28ec 22bf
000002f0: ceed 413e 477e 7c3e 2cca ffbd 54a4 a6be
00000300: 35c9 053c 3b32 d7be 4f0b 893e 7e3a 88be
00000310: d948 7f3e 8b92 a93d 99a2 a3be 3b27 b1be
00000320: 5ca2 6d3d cae9 80bd 4dca 31be 86f8 b7bd
00000330: f2d3 003e 2aee 31be 03cf 90bd d00f aa3d
00000340: fa39 5d3e cd51 b83e 27ec 42be 39a7 00be
00000350: b15e 9ebe 8c25 99bc d91a cd3d b325 d93e
00000360: 417a bdbe 12ee bebe b180 ef3d 4dfd 1abe
00000370: 13e7 9639 f4cb e0be dbfc 22bf f49d a6be
00000380: 74de 143b f54e bbbe ed49 b03d 7785 12bd
00000390: c607 b03e d3f9 ad3d 5582 37bc 9280 de3e
000003a0: 0fcf a73e 5355 5e3d 7325 4a3e 4a48 3a3e
000003b0: 2f66 013f c6ae 803c 5bb3 603d 3e87 a0be
000003c0: 7b28 b93d b1cf 88bd d901 e63c 98c7 413e
000003d0: 630e 88bf eab4 923e d8bd a13e 7ae6 dabd
000003e0: b8d8 1a3e 53cb 343d dd81 2f3e f0be 813e
000003f0: 55dc 0c3e 545b ac3d 98ed b3bc 4e2e 20bf

lstm.bias_ih_l0 f4 [256]
0.060725536 -0.088598855 -0.10637555 0.034028545 -0.039489757 -0.01947083 -0.10958786 0.013922794
-0.040022768 0.11205551 -0.032958332 -0.21547122 -0.11317786 -0.13191764 -0.03404513 -0.045409944
-0.08886258 -0.13448785 -0.018483873 -0.1465888 0.041044783 0.036054216 -0.062492378 -0.10966876
-0.26679155 0.13540545 0.055447776 -0.09193262 0.06423171 -0.18334031 -0.14238034 0.023973558
-0.15900253 -0.1550593 -0.08746908 0.13834083 -0.1481872 0.076825246 0.06197638 0.1718575
-0.122994944 -0.017444732 -0.23154071 0.09719936 -0.19341467 -0.039695326 0.09775042 0.063825995
0.04745841 -0.20417382 -0.19433825 0.03707019 0.22911204 0.018705 -0.17312425 0.047653835
-0.07377767 0.07945231 0.089593485 -0.051074713 0.17271727 -0.21794273 -0.07389326 0.09851994
-0.032859147 0.2543703 -0.11354695 -0.08461022 0.12370009 -0.13073358 0.15069118 -0.05517668
-0.031239232 -0.06253398 0.49449277 0.40397695 0.028287463 0.26954526 0.008596196 0.118640356
-0.061905596 -0.0076157874 0.01401477 -0.04609539 -0.09850314 0.072368786 0.111053936 0.098735966
0.33523035 0.16499604 -0.32035086 0.21834654 0.040715944 0.022655293 0.24649027 0.0824664
0.17380667 -0.12337713 0.0102820555 0.10727897 -0.09913397 -0.2715867 -0.103645205 0.04669168
0.5008585 -0.07920949 0.08418011 -0.048125625 0.091321565 0.020561414 0.069551244 -0.07857233
-0.07333154 0.28702298 -0.13136049 -0.23366055 -0.09857805 0.015217412 0.10905349 -0.36000896
0.23318723 -0.1284691 -0.06456508 0.45294517 0.041181136 0.18738604 -0.09928893 0.041043248
0.15481511 0.031368364 -0.10863648 0.122659095 -0.069594845 0.033486217 0.117458165 -0.031562306
0.15714991 0.035741538 -0.07624978 -0.09015547 -0.112514496 -0.007932419 -0.16048113 0.07240144
-0.07255727 -0.06924646 0.111401856 -0.11595221 0.02696222 -0.15629931 -0.097383074 -0.1413568
0.05157006 0.072341494 -0.076474376 0.025627654 -0.010826028 0.01567523 0.026161496 -0.008758963
-0.077761926 0.1384693 0.058223266 -0.11236677 -0.12874347 0.075143084 0.04424267 0.026943816
0.08692659 -0.018064676 0.12123609 -0.027879313 -0.002767479 0.07568217 -0.042937607 -0.0423394
-0.027091986 0.09174357 -0.038121957 0.017993176 -0.021546781 -0.094232224 -0.12202331 0.046751603
0.036968697 -0.21637405 0.1190007 0.1123361 0.06241705 0.08048006 0.02403172 -0.10052755
0.27203554 0.22334501 0.0135197425 -0.117036216 0.06909572 -0.00051052787 -0.35945627 -0.05605618
0.08309256 0.11863189 0.14921214 0.12168197 -0.063449 -0.041937962 0.12863123 0.23163077
-0.01678466 0.09784561 0.011526015 -0.078311644 -0.029479295 0.08367859 0.23462087 0.16455795
0.12298965 0.2128288 -0.17209482 -0.17766537 -0.0061452333 0.059400193 0.048031572 0.21672644
-0.114075296 -0.029753461 0.12008593 0.058532313 -0.2511522 -0.036730934 -0.12401704 0.23061347
0.15414158 -0.07938153 0.26647294 -0.023102013 0.1804097 -0.1715845 -0.060163572 0.06468248
0.19924076 0.03218211 -0.2747918 0.15932925 0.089139484 0.4275127 -0.04607841 0.19290067
0.24757285 0.010979044 0.13510527 0.08835619 0.07006342 -0.013178711 -0.26771045 0.34895068
00000000: 57bb 783d 5173 b5bd 6ddb d9bd 8461 0b3d
00000010: 03c0 21bd 4a81 9fbc 9a6f e0bd 6e1c 643c
00000020: eaee 23bd 5c7d e53d 51ff 06bd 7da4 5cbe
00000030: cbc9 e7bd 6b15 07be e872 0bbd c7ff 39bd
00000040: 96fd b5bd 2fb7 09be 7e6b 97bc 601b 16be
00000050: 931e 283d 96ad 133d 02f8 7fbd 049a e0bd
00000060: e798 88be baa7 0a3e 351d 633d 2b47 bcbd
00000070: ea8b 833d 90bd 3bbe 27cc 11be 3264 c43c
00000080: 8fd1 22be ddc7 1ebe fd22 b3bd 38a9 0d3e
00000090: 63be 17be 8e56 9d3d f2da 7d3d 6afb 2f3e
000000a0: c6e4 fbbd 41e8 8ebc 0219 6dbe 7510 c73d
000000b0: 7f0e 46be 9197 22bd 5f31 c83d 34b7 823d
000000c0: c063 423d f112 51be 9b00 47be e9d6 173d
000000d0: 599c 6a3e 3a3b 993c 7c47 31be ab30 433d
000000e0: bf18 97bd e5b7 a23d ca7c b73d b833 51bd
000000f0: ccdc 303e 612c 5fbe 5955 97bd d3c4 c93d
00000100: 5097 06bd d33c 823e 4e8b e8bd 1f48 adbd
00000110: 7956 fd3d 06df 05be ca4e 1a3e f100 62bd
00000120: 6be9 ffbc d111 80bd 282e fd3e 11d6 ce3e
00000130: 1cbb e73c d601 8a3e 0fd7 0c3c b7f9 f23d
00000140: b990 7dbd db8d f9bb 359e 653c 85ce 3cbd
00000150: 04bc c9bd 1636 943d 3f70 e33d 1536 ca3d
00000160: 50a3 ab3e b9f4 283e 0705 a4be 3c96 5f3e
00000170: c3c5 263d 9897 b93c f267 7c3e 25e4 a83d
00000180: 60fa 313e 26ad fcbd 1176 283c 14b5 db3d
00000190: c006 cbbd 690d 8bbe f043 d4bd c63f 3f3d
000001a0: 4338 003f 9638 a2bd 9f66 ac3d 601f 45bd
000001b0: cd06 bb3d 6970 a83c e270 8e3d 88ea a0bd
000001c0: d92e 96bd adf4 923e 5d83 06be b644 6fbe
000001d0: 4ae3 c9bd 7452 793c 7057 df3d 1853 b8be
000001e0: a2c8 6e3e 678d 03be b23a 84bd 6ee8 e73e
000001f0: 8dad 283d 20e2 3f3e ff57 cbbd f71c 283d
00000200: da87 1e3e 1d7c 003d ce7c debd b134 fb3d
00000210: be87 8ebd d828 093d e88d f03d 7a47 01bd
00000220: e8eb 203e b865 123d d828 9cbd 6ea3 b8bd
00000230: 006e e6bd faf6 01bc 2a55 24be 3547 943d
00000240: e898 94bd 17d1 8dbd a826 e43d 5a78 edbd
00000250: e0df dc3c ed0c 20be c770 c7bd d6bf 10be
00000260: 213b 533d c727 943d 999e 9cbd 16f1 d13c
00000270: a75f 31bc 5769 803c a250 d63c c181 0fbc
00000280: a541 9fbd e5ca 0d3e 857b 6e3d 8d20 e6bd
00000290: 54d5 03be 9ee4 993d cd37 353d 47b9 dc3c
000002a0: 9106 b23d 5ffc 93bc a14a f83d 2863 e4bc
000002b0: 985e 35bb 41ff 9a3d 58df 2fbd 146c 2dbd
000002c0: 03f0 ddbc 0ee4 bb3d c525 1cbd 6d66 933c
000002d0: e082 b0bc d3fc c0bd 5be7 f9bd 9c7e 3f3d
000002e0: 7d6c 173d 2991 5dbe a4b6 f33d 7810 e63d
000002f0: 05a9 7f3d bbd2 a43d 2bde c43c 63e1 cdbd
00000300: 3e48 8b3e 8eb4 643e e981 5d3c afb0 efbd
00000310: 0f82 8d3d f2d4 05ba a70a b8be 2a9b 65bd
00000320: 6f2c aa3d 47f5 f23d 11cb 183e 6634 f93d
00000330: 8df1 81bd 24c7 2bbd e8b7 033e 9e30 6d3e
00000340: fc7f 89bc 4763 c83d 9cd7 3c3c db61 a0bd
00000350: 907e f1bc ae5f ab3d 7440 703e e181 283e
00000360: ffe1 fb3d cbef 593e a039 30be e9ed 35be
00000370: f45d c9bb 9e4d 733d c1bc 443d 89ed 5d3e
00000380: 4fa0 e9bd 88bd f3bc 9def f53d 94bf 6f3d
00000390: 0597 80be 2d73 16bd a5fc fdbd f025 6c3e
000003a0: 4ad7 1d3e c992 a2bd 246f 883e 6f40 bdbc
000003b0: 52bd 383e d9b3 2fbe 146e 76bd 4078 843d
000003c0: c505 4c3e 63d1 033d 83b1 8cbe 3527 233e
000003d0: c38e b63d f2e2 da3e b7bc 3cbd c187 453e
000003e0: bd83 7d3e 73e1 333c 0959 0a3e 17f4 b43d
000003f0: 697d 8f3d 85eb 57bc 5811 89be aaa9 b23e

lstm.bias_hh_l0 f4 [256]
0.036574516 -0.0011977182 -0.008689296 -0.11595267 0.088267334 -0.1720768 0.023107532 -0.05111377
0.08782705 0.120846376 -0.16639546 -0.114517465 -0.12744866 -0.13049808 -0.09579122 0.05655089
-0.08530696 0.07057948 0.0062650256 -0.08811642 -0.03357639 0.0052242223 -0.15971757 -0.08810226
-0.28917098 0.087368004 0.015124303 0.032062687 -0.1094535 -0.13049972 -0.00010766278 -0.067368366
-0.20071876 0.04410718 -0.00214385 -0.013775689 0.005648472 0.10785895 -0.13160057 -0.043640938
-0.1056127 -0.04331191 -0.2690166 0.029880328 -0.07842876 0.08254259 0.0036829396 0.06724659
2.7090102e-06 -0.05067801 -0.37093696 0.17632338 0.2250146 0.13379662 -0.21619613 0.0012533219
-0.10905493 -0.0022963593 -0.11537498 -0.043465327 0.08509664 -0.22743563 -0.13693562 0.05267685
-0.019014517 0.3140773 -0.06269012 0.1396917 0.057932492 -0.058170315 0.12626185 -0.07143507
0.037507467 -0.12690479 0.50882614 0.37624046 -0.052175477 0.28273475 0.11134277 0.072951995
-0.07353368 -0.11023089 -0.032583054 -0.23841977 0.0639893 -0.0052688434 -0.004133473 0.1448367
0.38523254 0.03301568 -0.3125156 0.08489003 0.0329683 -0.0763902 0.12409987 -0.066519514
0.19321942 0.0650729 0.082116336 -0.055137478 0.049842797 -0.11639078 0.0096735675 0.12861364
0.4159018 -0.10950563 0.1093673 -0.051449653 -0.020218814 -0.0462242 -0.1072758 -0.10423323
-0.003772796 0.36488888 -0.11842295 -0.30891255 -0.060699373 -0.03271787 0.062416263 -0.22053508
0.16014536 0.085926816 -0.015234569 0.30704656 -0.13292904 0.22359645 0.040219672 -0.046236433
0.12292003 -0.04650189 -0.18583001 -0.06562506 0.06271632 -0.07269138 -0.015895447 -0.11504868
-0.02285423 0.021041282 0.09118313 -0.016150659 -0.13525741 -0.09575601 0.07336387 0.028141005
0.15106493 -0.045802858 -0.012678759 -0.1531308 -0.05645794 -0.16060758 -0.013579988 0.06054992
-0.056441404 -0.0057693925 -0.10466167 -0.002702648 0.061316628 0.048337456 0.073597394 -0.09217186
0.03231744 -0.011475031 0.0060827155 0.1011234 -0.114605196 -0.0069173914 0.041098304 -0.12989865
-0.09970233 -0.015344271 -0.0005530098 -0.05060455 0.09166411 0.18557274 -0.0032662207 -0.045614526
-0.11201357 -0.0019191429 -0.103042565 -0.064510114 -0.024453798 -0.04058647 -0.15689199 0.037639495
-0.017354636 -0.10759943 -0.07778027 0.19686005 0.081462 0.007932967 0.07517388 -0.02590213
0.11472858 0.0120341 0.12963213 0.10050299 -0.05318289 0.017163035 -0.17729153 0.0043264534
-0.049629185 0.044323612 0.16980165 0.12856214 -0.028177334 -0.22098647 0.038649425 0.33798882
-0.0017729948 -0.0077684135 0.004513543 -0.081501655 0.0049995794 0.23127306 0.2087279 0.10490381
0.025551792 0.25484753 -0.110454015 -0.09171499 0.09787478 0.21209799 0.061432622 0.16973624
-0.1815998 0.07758085 0.12533335 0.22515151 -0.13426046 -0.12588122 0.064766176 0.1977053
0.16632214 0.02055901 0.11205442 0.06785723 0.006479263 -0.21332245 0.15302356 0.15259205
0.026521375 0.029873107 -0.15568075 -0.08267155 0.06039183 0.36142978 0.053438462 0.16920704
0.23556903 0.067714825 -0.019881988 0.26440206 0.15238687 -0.071983196 -0.05865004 0.2487939
00000000: 29cf 153d c1fc 9cba 8d5d 0ebc 9878 edbd
00000010: 81c5 b43d e734 30be 024c bd3c ac5c 51bd
00000020: abde b33d 4e7e f73d 9263 2abe 2288 eabd
00000030: e781 02be 4aa1 05be 302e c4bd e8a1 673d
00000040: 6ab5 aebd f98b 903d d84a cd3b 6276 b4bd
00000050: 6687 09bd f42f ab3b 018d 23be f56e b4bd
00000060: 380e 94be ffed b23d edcb 773c 2a54 033d
00000070: 2829 e0bd b8a1 05be 04c9 e1b8 6df8 89bd
00000080: 3889 4dbe bba9 343d d67f 0cbb 6db3 61bc
00000090: d116 b93b 27e5 dc3d 4dc2 06be d7c0 32bd
000000a0: 794b d8bd d467 31bd 8bbc 89be 97c7 f43c
000000b0: 429f a0bd 170c a93d 795d 713b 95b8 893d
000000c0: 71cc 3536 bf93 4fbd 73eb bdbe 1e8e 343e
000000d0: 3a6a 663e fb01 093e 8562 5dbe 8146 a43a
000000e0: 3158 dfbd 847e 16bb b849 ecbd b308 32bd
000000f0: 2647 ae3d e3e4 68be da38 0cbe aec3 573d
00000100: 55c4 9bbc bdce a03e ad63 80bd 570b 0f3e
00000110: 9f4a 6d3d ff43 6ebd c94a 013e 8d4c 92bd
00000120: 6ea1 193d 54f3 01be 6e42 023f 97a2 c03e
00000130: f4b5 55bd 9cc2 903e ae07 e43d db67 953d
00000140: d398 96bd bcc0 e1bd cf75 05bd 5024 74be
00000150: d20c 833d 43a6 acbb 1672 87bb 1250 143e
00000160: 333d c53e 733b 073d 0b02 a0be d3da ad3d
00000170: c509 073d 7772 9cbd 1328 fe3d 623b 88bd
00000180: 50db 453e f144 853d 9c2c a83d d6d7 61bd
00000190: f627 4c3d 4a5e eebd e27d 1e3c 4bb3 033e
000001a0: 15f1 d43e 7d44 e0bd f7fb df3d dfbc 52bd
000001b0: eda1 a5bc 9655 3dbd 6ab3 dbbd 3b78 d5bd
000001c0: 0341 77bb b7d2 ba3e bb87 f2bd c929 9ebe
000001d0: e89f 78bd 2c03 06bd 32a8 7f3d f3d3 61be
000001e0: 25fd 233e 66fa af3d 6a9a 79bc 3535 9d3e
000001f0: 8d1e 08be 78f6 643e 62bd 243d 6a62 3dbd
00000200: 7fbd fb3d c478 3ebd 394a 3ebe 6e66 86bd
00000210: 6a71 803d 38df 94bd 2b37 82bc a49e ebbd
00000220: cb38 bbbc c45e ac3c 39be ba3d 634e 84bc
00000230: eb80 0abe ba1b c4bd cc3f 963d f787 e63c
00000240: c4b0 1a3e c79b 3bbd 92ba 4fbc 52ce 1cbe
00000250: 7140 67bd 5076 24be 997e 5ebc 3103 783d
00000260: 1a2f 67bd 2c0d bdbb dc58 d6bd e91e 31bb
00000270: 2527 7b3d 7ffd 453d 3bba 963d 9ac4 bcbd
00000280: 4b5f 043d c501 3cbc 8451 c73b c919 cf3d
00000290: 21b6 eabd 49ab e2bb b256 283d 2704 05be
000002a0: bc30 ccbd 8a66 7bbc dcf7 10ba b746 4fbd
000002b0: 65ba bb3d c806 3e3e 170e 56bb 4cd6 3abd
000002c0: 5f67 e5bd c08b fbba fb07 d3bd e11d 84bd
000002d0: 5553 c8bc 003e 26bd 4ba8 20be df2b 1a3d
000002e0: 4f2b 8ebc 175d dcbd 434b 9fbd ae95 493e
000002f0: 8dd5 a63d 46f9 013c c3f4 993d b430 d4bc
00000300: d1f6 ea3d ac2a 453c 49be 043e 83d4 cd3d
00000310: 4dd6 59bd 7e99 8c3c e98b 35be ecc4 8d3b
00000320: f947 4bbd ad8c 353d 7ce0 2d3e cba5 033e
00000330: 27d4 e6bc 474a 62be dc4e 1e3d df0c ad3e
00000340: d563 e8ba 2d8e febb 58e6 933b 57ea a6bd
00000350: 83d3 a33b d8d2 6c3e c4bc 553e cfd7 d63d
00000360: fe51 d13c 607b 823e b735 e2bd 12d5 bbbd
00000370: 9372 c83d 3730 593e c6a0 7b3d 56cf 2d3e
00000380: 4cf5 39be b5e2 9e3d 6357 003e 1e8e 663e
00000390: 937b 09be 02e7 00be 21a4 843d 4273 4a3e
000003a0: 5a50 2a3e 5e6b a83c ca7c e53d bbf8 8a3d
000003b0: ff4f d43b 3371 5abe 35b2 1c3e 1741 1c3e
000003c0: 5b43 d93c 72b8 f43c c66a 1fbe b44f a9bd
000003d0: 6c5d 773d 530d b93e 4ae2 5a3d 9c44 2d3e
000003e0: 0239 713e 12ae 8a3d 8ddf a2bc b55f 873e
000003f0: 4e0b 1c3e ed6b 93bd 063b 70bd d4c3 7e3e

lstm.weight_ih_l1 f4 [256, 64]
-0.35321742 -0.26205483 -0.24257939 -0.7312538 -0.08961471 -0.15567055 0.049322546 0.22530079
0.031438977 -0.09317704 -0.06408162 -0.12017891 -0.07317439 0.15888837 -0.34882993 -0.11507974
0.6987005 0.03982466 -0.47866702 0.13241923 -0.33120435 0.073934875 0.49357513 0.21868984
0.15841651 0.59047234 -0.08547713 -0.1575438 -0.1489834 -0.73541254 -0.24036619 -0.2120537
0.25386035 0.20366482 -0.5688692 0.96325135 0.253981 -0.43695846 0.5217299 0.008704363
0.20533621 0.11480849 0.25634906 -0.39457464 0.20061366 -0.07881631 -0.16913739 -0.61779964
-0.62258804 -0.14093433 -0.23694925 0.19097416 -0.041601647 0.26762494 0.3045852 0.19866124
-0.13406584 0.0047452855 -1.6430174 0.016578434 0.12159914 -0.19747426 0.06584878 0.9294712
0.44411105 0.06790905 -1.2284982 0.28894046 0.24971072 -0.17273302 -0.10639338 0.09434651
-0.011654671 -0.31812754 0.22278911 0.12795576 0.12367411 0.05065867 0.28297576 0.11258697
0.6309993 0.06439659 0.23856154 -0.3604997 0.14919071 -0.62438095 -0.006144327 0.24518183
-0.46836576 -0.56884134 -0.13890809 -0.117648736 -0.0061254487 -0.04505107 0.28049153 -0.061930202
-0.24273361 -0.4200154 -0.18531476 -0.23571907 0.03487718 0.11610401 -0.2978009 -0.1036748
-0.034304626 -0.2056001 0.37716284 0.44572425 0.1553064 0.06963457 -0.013311341 -0.09353453
0.15652438 -0.07012672 -0.029012062 -0.9688763 0.3586363 0.2477436 0.050617043 -0.17112824
-0.30857885 0.023289217 0.027119545 0.008510981 -0.34806457 0.0063747577 -0.329257 -0.10111096
0.58621126 0.023027295 -0.7174704 -0.099162154 0.09762629 0.02701427 -0.18814765 0.42646304
-0.40055996 0.0121348435 0.30852133 0.28673732 0.115872845 0.39862338 -0.10307959 0.26483423
-0.24552803 0.25156322 0.2718618 -0.19540866 0.1870608 -0.22347888 -0.08523505 -0.02414911
-0.88716125 -0.061340258 0.38367113 0.029322082 0.075293 -0.1860429 0.26840597 -0.0010749075
-0.06576307 -0.20112987 0.22917005 1.2719477 0.07006068 -0.115092635 -0.04880667 0.2459438
-0.2508581 -0.07920971 0.036245503 -0.48136723 0.6033019 0.11731313 -0.2931097 -0.10642976
0.27370894 0.16982661 -0.22176492 0.3296237 0.27015135 -0.03755088 0.1544859 -0.0068998467
-0.044682432 -0.04067655 -0.5337292 -0.0921245 -0.37405154 -0.26290545 -0.12764484 -0.13549103
0.027385183 0.10019169 -0.1446992 -0.054171786 -0.19240198 0.17748801 0.023679692 0.34316996
-0.29067826 -0.10478565 0.05135693 0.22275628 0.15339419 0.25148624 -0.30280066 0.15176849
0.042659126 0.1292761 -0.4459918 0.7215735 0.191465 0.17848939 -0.15961404 -0.065238684
-0.82921433 0.06261709 0.049500354 -0.07642891 0.1349463 -0.17210148 0.124283075 0.22255015
0.21111001 -0.28895506 -0.03762029 0.05809337 -0.039217677 -0.42083853 -0.016869286 -0.05716141
0.01823086 -0.065925665 0.9777931 -0.36157057 0.18661705 0.0022067658 -0.30228674 -0.1626802
0.28021315 0.14822428 0.026562994 0.010259221 -0.22156112 -0.37589842 0.19693059 -0.17157449
-0.32777494 0.3031338 -0.56275475 -0.1062954 -0.24088474 -0.19032304 -0.2948223 0.10036862
00000000: ead8 b4be 0d2c 86be bb66 78be 7333 3bbf
00000010: eb87 b7bd 1a68 1fbe 7006 4a3d 40b5 663e
00000020: 28c6 003d 9bd3 bebd 393d 83bd 5c20 f6bd
00000030: 74dc 95bd a2b3 223e d699 b2be edae ebbd
00000040: 09de 323f 2f1f 233d d813 f5be e898 073e
00000050: 9e93 a9be 2b6b 973d e1b5 fc3e 3bf0 5f3e
00000060: f037 223e 3229 173f a20e afbd 2953 21be
00000070: 1b8f 18be ff43 3cbf 8e22 76be 9b24 59be
00000080: fcf9 813e 838d 503e 69a1 11bf a497 763f
00000090: cc09 823e 05b9 dfbe 1790 053f bf9c 0e3c
000000a0: a843 523e b720 eb3d 2f40 833e b005 cabe
000000b0: ab6d 4d3e 726a a1bd 5a32 2dbe 1e28 1ebf
000000c0: ee61 1fbf 1751 10be d3a2 72be bb8e 433e
000000d0: 7d66 2abd 2306 893e 97f2 9b3e da6d 4b3e
000000e0: 8e48 09be 577e 9b3b 654e d2bf 7fcf 873c
000000f0: f808 f93d b136 4abe badb 863d d3f1 6d3f
00000100: 8662 e33e e613 8b3d 6e3f 9dbf 01f0 933e
00000110: 2bb4 7f3e ede0 30be c6e4 d9bd be38 c13d
00000120: 3cf3 3ebc 9de1 a2be d422 643e d606 033e
00000130: da48 fd3d 777f 4f3d 33e2 903e ff93 e63d
00000140: 2c89 213f 5ce2 833d 7a49 743e 6b93 b8be
00000150: 73c5 183e 6ed7 1fbf 5a56 c9bb f210 7b3e
00000160: a3cd efbe 969f 11bf ec3d 0ebe d2f1 f0bd
00000170: fdb7 c8bb 7987 38bd 969c 8f3e 86aa 7dbd
00000180: 298f 78be 420c d7be 27c3 3dbe 5760 71be
00000190: 60db 0e3d f0c7 ed3d 5c79 98be 7453 d4bd
000001a0: 0283 0cbd d588 52be 7d1b c13e f835 e43e
000001b0: a408 1f3e 929c 8e3d d017 5abc 088f bfbd
000001c0: ed47 203e 999e 8fbd b4aa edbc 4708 78bf
000001d0: 2d9f b73e 80b0 7d3e d153 4f3d 3e3c 2fbe
000001e0: 0cfe 9dbe 07c9 be3c cf29 de3c a471 0b3c
000001f0: 8535 b2be 58e3 d03b 6094 a8be 4313 cfbd
00000200: f111 163f bda3 bc3c 24ac 37bf 8715 cbbd
00000210: 4bf0 c73d 084d dd3c c7a9 40be 5d59 da3e
00000220: 3216 cdbe 39d1 463c 82f6 9d3e 3ccf 923e
00000230: be4e ed3d 5d18 cc3e 641b d3bd 5a98 873e
00000240: b36b 7bbe e5cc 803e 7831 8b3e 3519 48be
00000250: de8c 3f3e a6d7 64be b78f aebd 5bd4 c5bc
00000260: 001d 63bf ec3f 7bbd 8b70 c43e dd34 f03c
00000270: 3733 9a3d 0882 3ebe 826c 893e e9e3 8cba
00000280: caae 86bd fdf4 4dbe 8eab 6a3e 2fcf a23f
00000290: f97b 8f3d b0b5 ebbd 81e9 47bd b1d8 7b3e
000002a0: 7970 80be b338 a2bd 2a76 143d c475 f6be
000002b0: fe71 1a3f de41 f03d 7912 96be d9f7 d9bd
000002c0: 9423 8c3e 07e7 2d3e 5816 63be 70c4 a83e
000002d0: 4751 8a3e f4ce 19bd 8d31 1e3e 1c18 e2bb
000002e0: ed04 37bd 749c 26bd 7aa2 08bf c5ab bcbd
000002f0: af83 bfbe 8b9b 86be 54b5 02be 29be 0abe
00000300: e456 e03c 4d31 cd3d 072c 14be 3ce3 5dbd
00000310: 0605 45be 6bbf 353e eafb c13c f9b3 af3e
00000320: c8d3 94be dc99 d6bd a55b 523d 391a 643e
00000330: 5e13 1d3e cec2 803e b008 9bbe 3369 1b3e
00000340: 56bb 2e3d f460 043e 0a59 e4be 0ab9 383f
00000350: 670f 443e ecc5 363e dd71 23be dc9b 85bd
00000360: 6447 54bf 643d 803d e2c0 4a3d c386 9cbd
00000370: 5d2f 0a3e 5f3b 30be 2088 fe3d 30e4 633e
00000380: 392d 583e ebf1 93be bc17 1abd 50f3 6d3d
00000390: b7a2 20bd 2678 d7be 7531 8abc 1522 6abd
000003a0: e258 953c 0904 87bd a650 7a3f c71f b9be
000003b0: 8a18 3f3e 639f 103b 54c5 9abe a395 26be
000003c0: 1978 8f3e 1bc8 173e a39a d93c 4b16 283c
000003d0: ebe0 62be c275 c0be 2ca8 493e 39b1 2fbe
000003e0: 1ed2 a7be 5a34 9b3e b210 10bf 67b1 d9bd
000003f0: 7daa 76be 0be4 42be f3f2 96be 108e cd3d

lstm.weight_hh_l1 f4 [256, 64]
-0.035293356 -0.2621574 0.39179116 0.027690094 -0.2208267 0.011458865 -0.43400154 -0.37523302
-0.20209184 -0.2409103 -0.3817376 -0.017281044 -0.03076616 0.21482289 0.0003530399 -0.3243307
0.08113214 0.07233309 -0.25832596 -0.17555465 -0.13276303 0.14840126 -0.104412235 -0.1531999
-0.098302975 -0.04263016 0.009740793 -0.17418481 -0.21505484 0.22668725 0.01371682 0.050048184
-0.16212709 -0.026075896 0.53446406 0.0018053097 0.022581736 0.0017549811 -0.0025956896 -0.48772183
0.037349153 0.06681978 -0.11541282 -0.2439395 -0.08725915 -0.19061151 0.3091508 -0.2359523
-0.076749526 0.02829702 -0.050161004 0.0073590763 0.084376186 -0.30017525 -0.17852847 -0.21633525
-0.2957538 -0.04070563 0.22522128 -0.4303552 0.033156384 -0.2227358 -0.111303054 0.24703369
0.122312106 0.15491857 0.3562627 -0.040056583 0.26217073 -0.09001727 -0.22817998 0.07899622
0.010016848 0.108156495 0.011290006 -0.013416644 -0.13972533 0.33563146 -0.25809878 0.1567745
-0.013049062 -0.15254897 -0.0938675 0.05994634 0.033825945 -0.21256478 0.12825112 0.087497346
-0.2554531 -0.12803549 -0.19747643 -0.515834 -0.28205842 -0.058583785 -0.20802183 -0.45365685
0.1383225 0.110739574 0.020062368 -0.18331265 -0.039271343 -0.29112932 -0.33305204 -0.10298922
0.10419464 -0.07701773 -0.011505397 0.06857319 -0.13914916 -0.35172698 0.20098107 -0.106066324
-0.33334196 -0.21755174 -0.025351012 0.38707048 -0.3527148 0.52138484 -0.19214419 -0.0168324
0.008215541 -0.048568025 0.046937738 -0.49437752 -0.12548172 -0.5061403 0.33724952 0.014476135
-0.03207136 -0.3310682 0.21536462 -0.21882711 -0.16034405 -0.5430377 -0.29145458 -0.53714633
0.14594842 0.16665074 0.10091081 0.08106453 -0.07297002 -0.11592041 0.6263339 0.0026973486
-0.31716517 0.33592612 0.06122676 0.09605338 0.04216385 0.008628483 0.16687407 -0.054197498
-0.168711 -0.11092602 -0.017766947 0.10236648 -0.03196699 -0.42070457 0.450396 -0.12826414
0.28754127 0.086181305 0.079139985 -0.19952945 0.087900676 -0.15716845 0.038666368 0.047509212
-0.16013421 0.19385311 -0.3571357 -0.02326499 -0.33805394 0.62897456 0.35978043 -0.044044953
0.082104996 0.39987457 0.042337146 -0.3682624 -0.19410259 -0.097357765 -0.12930071 0.4116159
-0.32246512 0.2128061 0.13893284 0.10574273 0.22060849 -0.114577994 -0.20441209 -0.19575381
0.25317448 -0.19655256 -0.42049924 0.056683436 -0.16982302 -0.019803915 0.004456583 0.73433924
0.15451884 0.11058708 -0.078578345 -0.38831463 -0.049027223 0.22591895 -0.49215317 -0.058866847
0.1975336 -0.3637103 0.06603267 0.013138908 -0.016090872 0.36324218 0.2522936 -0.035154402
-0.0078048054 -0.16791673 -0.011140831 -0.06406497 -0.0064978427 0.55232555 -0.48730224 -0.3295264
0.20278038 0.20516908 0.021704841 -0.19605593 0.11629314 -0.099744506 -0.2520608 -0.03781745
0.3763328 -0.29629645 0.1313003 0.057555597 -0.058340184 -0.804049 0.26654586 -0.21174802
0.46960992 -0.12750992 -0.17263764 -0.049845308 -0.16742432 -0.25017294 -0.19742781 -0.06470356
-0.29050696 -0.008629206 -0.27394146 -0.012066664 -0.07375616 0.1218849 0.0035184054 0.083973855
00000000: c48f 10bd 7f39 86be da98 c83e 56d6 e23c
00000010: 6520 62be f7bd 3b3c 7335 debe 8b1e c0be
00000020: 2af1 4ebe 31b1 76be 1c73 c3be fa90 8dbc
00000030: 5009 fcbc 88fa 5b3e 3718 b939 ac0e a6be
00000040: 9b28 a63d 5f23 943d 4d43 84be 99c4 33be
00000050: 08f3 07be 80f6 173e 15d6 d5bd 6fe0 1cbe
00000060: 1253 c9bd f69c 2ebd d997 1f3c 815d 32be
00000070: 5637 5cbe b420 683e 83bc 603c 53ff 4c3d
00000080: a504 26be 1e9d d5bc a3d2 083f 24a0 ec3a
00000090: 55fd b83c 6507 e63a 721c 2abb adb6 f9be
000000a0: 6dfb 183d cfd8 883d 8e5d ecbd 47cb 79be
000000b0: edb4 b2bd aa2f 43be 0349 9e3e 7b9d 71be
000000c0: db2e 9dbd 27cf e73c a075 4dbd 6824 f13b
000000d0: 6ccd ac3d 92b0 99be 2bd0 36be fd86 5dbe
000000e0: 0b6d 97be f2ba 26bd 68a0 663e 8457 dcbe
000000f0: fdce 073d db14 64be dbf2 e3bd 66f6 7c3e
00000100: c57e fa3d f9a2 1e3e 1168 b63e 5f12 24bd
00000110: 3e3b 863e f95a b8bd 03a8 69be c5c8 a13d
00000120: b51d 243c 2781 dd3d b8f9 383c 7cd1 5bbc
00000130: 2814 0fbe e3d7 ab3e 8625 84be 7f89 203e
00000140: bccb 55bc cc35 1cbe 9b3d c0bd 4b8a 753d
00000150: 138d 0a3d 95aa 59be 4354 033e cf31 b33d
00000160: c0ca 82be bc1b 03be 4337 4abe b20d 04bf
00000170: f669 90be 8df5 6fbd ad03 55be b645 e8be
00000180: 6aa4 0d3e 6ecb e23d d659 a43c 50b6 3bbe
00000190: fdda 20bd e70e 95be cc85 aabe 03ec d2bd
000001a0: 0064 d53d 79bb 9dbd 2281 3cbc 1a70 8c3d
000001b0: 1e7d 0ebe 8f15 b4be fbcd 4d3e 4d39 d9bd
000001c0: ccab aabe e2c5 5ebe edac cfbc 1a2e c63e
000001d0: 0997 b4be 7a79 053f 72c1 44be 1ae4 89bc
000001e0: 7a9a 063c 44ef 46bd c941 403d 0d1f fdbe
000001f0: 487e 00be 6992 01bf f8ab ac3e 502d 6d3c
00000200: 425d 03bd c581 a9be 8b88 5c3e 3714 60be
00000210: 3b31 24be 8504 0bbf 8939 95be 6c82 09bf
00000220: 8173 153e 7ea6 2a3e 54aa ce3d 2905 a63d
00000230: 4e71 95bd ae67 edbd 6b57 203f 00c6 303b
00000240: 7963 a2be 82fe ab3e e9c8 7a3d a2b7 c43d
00000250: 00b4 2c3d 7b5e 0d3c 09e1 2a3e 32fe 5dbd
00000260: 94c2 2cbe 2e2d e3bd fd8b 91bc 84a5 d13d
00000270: d2ef 02bd 9766 d7be 4e9a e63e ad57 03be
00000280: 9c38 933e d37f b03d 2514 a23d 7351 4cbe
00000290: 4505 b43d c4f0 20be a060 1e3d 0599 423d
000002a0: 39fa 23be 6e81 463e 7eda b6be 3896 bebc
000002b0: 6815 adbe 7a04 213f 2435 b83e 7b68 34bd
000002c0: aa26 a83d 5cbc cc3e b769 2d3d e48c bcbe
000002d0: d4c2 46be 8263 c7bd 6867 04be 52bf d23e
000002e0: 261a a5be d8e9 593e 6944 0e3e a58f d83d
000002f0: 31e7 613e dea7 eabd 6751 51be b073 48be
00000300: 16a0 813e 1345 49be ad4b d7be e42c 683d
00000310: 16e6 2dbe d23b a2bc 8708 923b a8fd 3b3f
00000320: 303a 1e3e 7b7b e23d afed a0bd 2dd1 c6be
00000330: c5d0 48bd 4c57 673e 80fb fbbe 5d1e 71bd
00000340: 3f46 4a3e 3d38 babe 233c 873d 9344 573c
00000350: 01d1 83bc e1fa b93e a02c 813e 10fe 0fbd
00000360: 74bf ffbb 5df2 2bbe 0888 36bc 7f34 83bd
00000370: dbeb d4bb 3565 0d3f ae7f f9be afb7 a8be
00000380: a9a5 4f3e d817 523e 5ace b13c e3c2 48be
00000390: 192b ee3d d946 ccbd 1d0e 81be 78e6 1abd
000003a0: b1ae c03e 2bb4 97be 9673 063e 6bbf 6b3d
000003b0: 1ef6 6ebd 28d6 4dbf b378 883e 79d4 58be
000003c0: b670 f03e f691 02be ecc7 30be 982a 4cbd
000003d0: 4871 2bbe ab16 80be 842a 4abe 4d83 84bd
000003e0: 54bd 94be 8361 0dbc 0e42 8cbe 42b3 45bc
000003f0: 780d 97bd ca9e f93d 0c95 663b 7cfa ab3d

lstm.bias_ih_l1 f4 [256]
-0.06644088 -0.05364631 -0.119276494 -0.16954526 0.13836746 -0.03146164 0.20935078 -0.43405223
-0.17322412 0.25536817 -0.06329733 0.16178848 -0.03991495 -0.5141915 -0.20436504 -0.22834511
-0.20842111 -0.07968992 -0.15775122 -0.1558283 0.0042882576 -0.04236009 0.026842106 0.004497826
0.2544869 0.04785658 0.06973865 -0.26585516 0.036974378 0.054234684 0.022481604 0.019660328
-0.13206439 -0.20278648 -0.15721518 -0.12281595 -0.34306422 -0.13763748 0.30920228 0.0958997
0.09226518 -0.028243607 -0.12735043 -0.12309929 -0.051277895 -0.18058257 -0.061596688 -0.3045042
0.12383018 0.1792166 -0.25660136 0.027476147 0.06769031 -0.14677463 0.012574857 -0.15573373
-0.25968045 -0.069026455 0.17116255 -0.0002598961 0.08742685 -0.06585722 -0.16513835 0.19956331
-0.06118035 0.14536418 -0.08739521 -0.17288773 0.1717506 -0.06308758 0.28794447 0.606356
-0.061433155 0.017524872 0.024883704 0.606571 -0.10023917 0.3911142 -0.07017187 -0.1080428
-0.28068453 0.4145655 0.28665057 0.046746418 -0.2848146 0.03385195 -0.031535026 -0.026664563
0.47592074 -0.093566865 0.011099421 0.10775035 -0.079242885 -0.13638358 -0.047373354 0.44340727
-0.1439413 -0.033255827 -0.17857428 0.19218028 -0.13607515 0.058449738 0.024393681 0.12768565
0.38728073 -0.12670152 0.4700695 -0.07453813 0.21604173 -0.062491264 0.513251 0.0019051902
-0.11605488 -0.15971449 -0.025505595 0.04818309 0.18096864 0.013473814 0.48390344 0.34907788
-0.031862933 0.3117843 -0.1401563 -0.09786337 0.024066 -0.122097 -0.09692446 0.23942453
-0.09449932 -0.076081544 0.049377438 -0.08210814 0.104805425 0.14506905 0.042113937 0.14499085
-0.13374272 0.1252892 -0.08927964 -0.07220246 -0.014392387 -0.027619889 0.13086817 0.031068573
0.028093811 0.023867331 -0.012478289 0.14003132 0.18601595 0.06189892 -0.16376355 0.17030913
0.032105606 0.1311844 -0.19997236 0.055852346 -0.048335187 -0.061534677 -0.028690502 0.10445787
-0.06512288 -0.09527871 0.063920796 -0.07398402 -0.08930033 -0.058069184 0.088281766 0.23967855
0.033512313 0.025986534 0.14801864 -0.10122909 0.038492426 -0.07732986 -0.05934292 0.1688572
-0.15399821 0.14785625 0.09030989 0.040762678 0.13951845 -0.19370829 -0.045963198 -0.12351012
-0.10668469 -0.07237579 0.002515344 -0.1282165 -0.05839326 0.025018804 0.07037163 0.05332428
-0.14994659 0.033995777 -0.09868153 -0.048995417 -0.028884197 -0.07957204 -0.07609871 0.24321055
-0.041012708 0.5241372 -0.09036646 -0.23454268 -0.0008375936 -0.032163896 0.071886 -0.219384
-0.13494337 -0.17166735 -0.060635496 -0.05808067 -0.21625498 0.11742806 -0.0052936277 -0.14017576
-0.12183267 0.053283818 -0.16925462 -0.18120104 -0.16614683 0.23524931 0.21724637 -0.21824656
-0.14005356 -0.027847257 -0.15118854 0.082050845 -0.35048828 -0.016381718 0.31834894 -0.30289617
-0.018339902 0.21298578 -0.07829539 -0.088531904 -0.053578105 0.056207348 -0.24444968 -0.26951346
-0.021941755 0.13066313 -0.27525377 0.17517737 -0.3066416 0.071842246 -0.16400716 -0.15536508
0.042730518 -0.19664814 -0.034105834 0.07415157 0.19735995 -0.10991983 -0.007108743 -0.1985026
00000000: 2812 88bd 3cbc 5bbd 3c47 f4bd 469d 2dbe
00000010: 33b0 0d3e ecdd 00bd 0d60 563e 183c debe
00000020: aa61 31be 9ebf 823e 08a2 81bd e1ab 253e
00000030: dc7d 23bd 0ea2 03bf 1245 51be 4dd3 69be
00000040: 586c 55be 7834 a3bd 8989 21be 7491 1fbe
00000050: 8384 8c3b c681 2dbd fae3 db3c 8062 933b
00000060: 1b4c 823e 4305 443d 23d3 8e3d 2b1e 88be
00000070: 7272 173d 3025 5e3d 572b b83c b20e a13c
00000080: e33b 07be 42a7 4fbe 04fd 20be ee86 fbbd
00000090: 1da6 afbe d7f0 0cbe c34f 9e3e 1067 c43d
000000a0: 87f5 bc3d 235f e7bc 2768 02be 7b1b fcbd
000000b0: c508 52bd a3ea 38be cf4c 7cbd f9e7 9bbe
000000c0: ad9a fd3d 8e84 373e 4161 83be a815 e13c
000000d0: 38a1 8a3d 174c 16be c606 4e3c aa78 1fbe
000000e0: d6f4 84be be5d 8dbd 3c45 2f3e aa42 88b9
000000f0: d90c b33d 26e0 86bd 071a 29be 535a 4c3e
00000100: 3f98 7abd 59da 143e 43fc b2bd 7b09 31be
00000110: 64df 2f3e 1034 81bd 756d 933e 263a 1b3f
00000120: 55a1 7bbd 5290 8f3c e9d8 cb3c 3d48 1b3f
00000130: 324a cdbd 1f40 c83e 45b6 8fbd 8b45 ddbd
00000140: e2b5 8fbe ee41 d43e ddc3 923e 2c79 3f3d
00000150: 38d3 91be 58a8 0a3d df2a 01bd a46f dabc
00000160: e2ab f33e fc9f bfbd 59da 353c 37ac dc3d
00000170: 184a a2bd 23a8 0bbe 900a 42bd 4706 e33e
00000180: 5965 13be 4337 08bd 2ddc 36be e8ca 443e
00000190: 4957 0bbe fe68 6f3d 42d5 c73c 07c0 023e
000001a0: a949 c63e 0bbe 01be f3ac f03e 72a7 98bd
000001b0: 0b3a 5d3e d7f6 7fbd 6b64 033f 93b7 f93a
000001c0: 2eae edbd 328c 23be 1cf1 d0bc a25b 453d
000001d0: d84f 393e 46c1 5c3c 31c2 f73e 56ba b23e
000001e0: b582 02bd 31a2 9f3e 2285 0fbe 976c c8bd
000001f0: 0f26 c53c fe0d fabd 5580 c6bd b42b 753e
00000200: dc88 c1bd a4d0 9bbd ff3f 4a3d 5028 a8bd
00000210: 3aa4 d63d fb8c 143e aa7f 2c3d 7b78 143e
00000220: daf3 08be d04b 003e 3ed8 b6bd e2de 93bd
00000230: 0cce 6bbc 1b43 e2bc 4e02 063e 8583 fe3c
00000240: fe24 e63c 6c85 c33c bd71 4cbc 5f64 0f3e
00000250: f77a 3e3e b989 7d3d a2b1 27be 8465 2e3e
00000260: 2b81 033d 3455 063e 8ec5 4cbe 6ec5 643d
00000270: 1efb 45bd c90b 7cbd 5808 ebbc 02ee d53d
00000280: 255f 85bd 7c21 c3bd e8e8 823d ef84 97bd
00000290: 17e3 b6bd f4d9 6dbd 12cd b43d 4b6e 753e
000002a0: 3544 093d b6e1 d43c 3392 173e 3251 cfbd
000002b0: 3caa 1d3d 1e5f 9ebd 9011 73bd e7e8 2c3e
000002c0: b5b1 1dbe a167 173e 64f4 b83d c4f6 263d
000002d0: eddd 0e3e 775b 46be e843 3cbd e0f2 fcbd
000002e0: 817d dabd c239 94bd 78d8 243b 304b 03be
000002f0: c52d 6fbd 3cf4 cc3c 001f 903d 8f6a 5a3d
00000300: 998b 19be 283f 0b3d 8b19 cabd 6baf 48bd
00000310: 8d9e ecbc aaf6 a2bd a4d9 9bbd 300c 793e
00000320: f1fc 27bd db2d 063f 0d12 b9bd f52b 70be
00000330: f491 5bba 4abe 03bd f838 933d 33a6 60be
00000340: 982e 0abe 91c9 2fbe ed5c 78bd ffe5 6dbd
00000350: f271 5dbe 1f7e f03d 2b76 adbb 3c8a 0fbe
00000360: 6883 f9bd 2240 5a3d 1551 2dbe c48c 39be
00000370: 6522 2abe 32e5 703e d575 5e3e 077c 5fbe
00000380: 336a 0fbe ee1f e4bc 2bd1 1abe 460a a83d
00000390: 3373 b3be f432 86bc a2fe a23e 3515 9bbe
000003a0: 903d 96bc f218 5a3e 5559 a0bd 3750 b5bd
000003b0: b774 5bbd ad39 663d 0451 7abe abfd 89be
000003c0: 32bf b3bc 8ecc 053e 10ee 8cbe b261 333e
000003d0: 2100 9dbe 0722 933d 7ef1 27be 0618 1fbe
000003e0: 3206 2f3d 215e 49be 8fb2 0bbd c7dc 973d
000003f0: ba18 4a3e a61d e1bd 75f0 e8bb 4444 4bbe

lstm.bias_hh_l1 f4 [256]
0.017148547 -0.12336128 -0.15773872 -0.025600798 0.16220765 -0.00055456295 0.33410546 -0.4759559
0.0049339593 0.45118985 -0.15068677 -0.06603708 0.024709458 -0.6059122 -0.088009514 -0.17246465
-0.068008535 -0.071732506 -0.068469174 -0.10250145 -0.0155574065 0.017171023 0.002837006 -0.20019984
0.26647404 0.042655107 0.047525045 -0.3172138 -0.15342328 -0.05779732 0.07154099 -0.031016065
-0.13103072 -0.25634143 -0.06917404 -0.23777302 -0.26591694 -0.03150972 0.19856878 0.039055955
0.13570434 0.11734952 -0.24212594 -0.2445433 -0.14097127 0.019155506 -0.041264262 -0.3046377
0.12505242 0.089610346 -0.17460063 -0.040257018 -0.12228423 -0.09848311 0.001252391 -0.080779515
-0.19169825 -0.16507404 -0.012479796 0.083058886 0.15810272 -0.17149489 -0.24041376 0.012202463
0.08658309 -0.06508608 -0.07263465 0.031067839 0.061598513 -0.13333271 0.25718406 0.47136414
0.087005705 -0.006495637 0.224618 0.6093138 -0.07357729 0.38058475 0.07171463 -0.07618551
-0.26472855 0.3704628 0.055012584 0.060801096 -0.053773705 0.019490726 -0.025969518 0.15392452
0.5939914 -0.050101437 -0.16226771 0.19123882 -0.17503768 -0.13473539 -0.040524285 0.3926673
-0.06761431 0.044851765 -0.09363394 0.21782066 -0.033275437 0.07455138 -0.044553034 0.16956079
0.30546427 0.019646103 0.4158327 -0.1645228 0.112118796 -0.028004171 0.4361627 -0.000893844
-0.08023163 -0.118983656 -0.26005274 0.016904328 0.18693152 0.035393994 0.26261085 0.31030563
-0.12206229 0.37689614 -0.30830356 -0.08004479 -0.16374005 -0.17891271 -0.1711769 0.346395
0.016747944 0.13622135 0.10470671 0.050396822 0.19397768 0.08339996 0.068017915 -0.0036326419
-0.060107026 -0.09562459 -0.14593747 0.007535611 -0.004932212 0.15681534 0.15842514 -0.06467609
0.021815108 -0.07755383 0.13634118 -0.06008699 0.0026153424 -0.061345622 -0.12052865 -0.029898081
0.2151524 0.20689759 0.031924188 0.043395072 0.0029695998 -0.06668763 0.018971609 0.018262403
-0.16316187 -0.049670245 -0.012110559 0.112574145 -0.2507753 -0.22874261 0.122524455 0.23116066
0.12293934 0.027950397 0.08489027 -0.09259166 -0.027547283 -0.14574333 -0.13953824 0.106996015
-0.14096545 0.060574204 0.07863176 -0.14883605 0.065383345 -0.16249035 0.107533075 0.040263493
0.010380999 -0.23748265 0.026855499 0.0019964266 -0.041947737 0.15741257 -0.10865754 -0.049063984
-0.18884243 -0.14338008 -0.03549068 0.0011429472 -0.17841287 0.0042789183 0.09100242 0.25352722
0.0275105 0.5896237 -0.014002314 -0.33745357 -0.021237904 -0.09618959 0.06927264 -0.2290337
-0.23123644 -0.22969374 0.038142156 -0.08797135 -0.33820173 0.31564492 0.027389627 -0.28773785
0.052141283 -0.11173305 -0.09967949 -0.17537045 -0.03854951 0.083479725 0.11423322 -0.2400012
-0.043857567 0.056292973 -0.1635861 0.0318882 -0.3254666 0.090969555 0.30613482 -0.17317632
-0.028116874 0.070520304 -0.13271302 -0.10289921 -0.064327374 0.08420209 -0.39682385 -0.17040792
0.10959536 0.11021447 -0.3182416 0.40592775 -0.22302991 -0.10673534 -0.20257823 -0.22177845
-0.028415443 -0.32757357 0.1356752 0.12480108 0.22673759 -0.16947481 0.08225826 -0.21576628
00000000: 1c7b 8c3c d7a4 fcbd 4286 21be c4b8 d1bc
00000010: c319 263e 1760 11ba df0f ab3e 7eb0 f3be
00000020: 0dad a13b 5b02 e73e a24d 1abe 733e 87bd
00000030: 7d6b ca3c 101d 1bbf 553e b4bd 939a 30be
00000040: 0f48 8bbd 7ee8 92bd 9139 8cbd 48ec d1bd
00000050: 7ee4 7ebc 3faa 8c3c 10ed 393b 3001 4dbe
00000060: 496f 883e 1fb7 2e3d 9fa9 423d d969 a2be
00000070: fe1a 1dbe e2bc 6cbd 1584 923d 6715 febc
00000080: eb2c 06be 2f3f 83be 1eab 8dbd c57a 73be
00000090: 4426 88be 5610 01bd 9d55 4b3e 23f9 1f3d
000000a0: 14f6 0a3e f254 f03d ddef 77be 8f69 7abe
000000b0: c65a 10be 02ec 9c3c b704 29bd 79f9 9bbe
000000c0: be0d 003e a185 b73d 82ca 32be 8be4 24bd
000000d0: 2870 fabd 83b1 c9bd 4527 a43a bb6f a5bd
000000e0: 8c4c 44be 2b09 29be 0f78 4cbc c71a aa3d
000000f0: aee5 213e 5b9c 2fbe 062f 76be d7ec 473c
00000100: 7a52 b13d da4b 85bd 7ac1 94bd fb81 fe3c
00000110: b94e 7c3d 5f88 08be a1ad 833e a456 f13e
00000120: 0c30 b23d 5ad9 d4bb 4302 663e fdfb 1b3f
00000130: b1af 96bd 01dc c23e 1fdf 923d 2607 9cbd
00000140: 808a 87be 4dad bd3e e054 613d 920a 793d
00000150: d141 5cbd 04ab 9f3c 07be d4bc 649e 1d3e
00000160: d20f 183f 2a37 4dbd 8229 26be 1cd4 433e
00000170: 143d 33be 13f8 09be cbfc 25bd b00b c93e
00000180: 5f79 8abd 7cb6 373d 27c3 bfbd 610c 5f3e
00000190: d34b 08bd 65ae 983d 3e7d 36bd 58a1 2d3e
000001a0: d065 9c3e ddf0 a03c 06e8 d43e aa78 28be
000001b0: 8a9e e53d 0169 e5bc b850 df3e db50 6aba
000001c0: 7b50 a4bd b4ad f3bd a225 85be f27a 8a3c
000001d0: fa6a 3f3e 4bf9 103d ee74 863e 61e0 9e3e
000001e0: cbfb f9bd 88f8 c03e f7d9 9dbe 86ee a3bd
000001f0: 79ab 27be e534 37be ff48 2fbe af5a b13e
00000200: fc32 893c 9c7d 0b3e 7970 d63d e66c 4e3d
00000210: 16a2 463e 99cd aa3d fa4c 8b3d 9e11 6ebb
00000220: c932 76bd d3d6 c3bd a270 15be 49ed f63b
00000230: 659e a1bb 3394 203e 333a 223e e674 84bd
00000240: 99b5 b23c 8bd4 9ebd 069d 0b3e c71d 76bd
00000250: 2a66 2b3b 8c45 7bbd bad7 f6bd d2ec f4bc
00000260: e950 5c3e f6dc 533e f0c2 023d 08bf 313d
00000270: 9e9d 423b 8693 88bd 596a 9b3c 099b 953c
00000280: e813 27be 0773 4bbd 5e6b 46bc 468d e63d
00000290: 9f65 80be 813b 6abe 1aee fa3d 61b5 6c3e
000002a0: 9fc7 fb3d 3bf8 e43c f3da ad3d b2a0 bdbd
000002b0: d7aa e1bc bd3d 15be 1de3 0ebe ba20 db3d
000002c0: 3f59 10be a81c 783d b009 a13d 7a68 18be
000002d0: b4e7 853d df63 26be 4d3a dc3d 55eb 243d
000002e0: 1115 2a3c a72e 73be 1000 dc3c 7bd6 023b
000002f0: 64d1 2bbd c330 213e d887 debd 51f7 48bd
00000300: e95f 41be 3ad2 12be ad5e 11bd f2ce 953a
00000310: ddb1 36be 2b36 8c3b 7a5f ba3d 52ce 813e
00000320: b35d e13c 94f1 163f f669 65bc b7c6 acbe
00000330: 1dfb adbc 0cff c4bd d0de 8d3d cf87 6abe
00000340: 3fc9 6cbe d634 6bbe f33a 1c3d 532a b4bd
00000350: c728 adbe 369c a13e 3660 e03c 6052 93be
00000360: 1992 553d 4cd4 e4bd c324 ccbd 5094 33be
00000370: 17e6 1dbd 6bf7 aa3d 1bf3 e93d e0c2 75be
00000380: fea3 33bd 7693 663d 1d83 27be 349d 023d
00000390: 8fa3 a6be 3f4e ba3d b4bd 9c3e 2255 31be
000003a0: 5c55 e6bc f36c 903d ece5 07be d2bc d2bd
000003b0: 12be 83bd 2572 ac3d 7f2c cbbe 6a7f 2ebe
000003c0: 8873 e03d 20b8 e13d 90f0 a2be c3d5 cf3e
000003d0: f461 64be 0f98 dabd ab70 4fbe e419 63be
000003e0: 81c7 e8bc b9b7 a7be 71ee 0a3e b597 ff3d
000003f0: e62d 683e ce8a 2dbe 0577 a83d d6f1 5cbe
