model_GCN_state_dict.pt (torch, 263800 bytes, 4 tensors)

conv1.bias f4 [64]
0.043181844 0.042804744 0.05284353 0.019088618 0.01980866 -0.0061795483 0.053864192 0.06802052
0.032454733 -0.0011700261 0.04055626 0.0469708 0.046492986 0.037203506 0.062119544 0.03466266
0.039792754 0.0023877448 0.05683042 0.022700295 0.027823454 0.045554087 0.05269256 -0.0049118376
0.025479287 0.054276966 0.027308648 0.048296638 0.03925315 0.00015832642 0.014281634 -0.012615292
0.038151965 0.08898759 0.0096723065 0.036213227 0.05946602 0.029471925 0.037740886 0.03641407
0.04442694 0.01454472 0.004493538 0.033372477 0.017708978 -0.006296303 0.020699596 0.055117983
0.0506526 0.011839246 0.026596712 0.04583632 0.061173502 0.040430192 0.04527564 0.008197518
0.012051265 0.014209496 0.039014094 0.036710225 0.032411423 0.05433553 0.06371486 0.059801094
00000000: 72df 303d 0754 2f3d 7572 583d bc5f 9c3c
00000010: c545 a23c cf7d cabb b3a0 5c3d 584e 8b3d
00000020: 41ef 043d 905b 99ba 521e 263d 7464 403d
00000030: 6e6f 3e3d b462 183d 1071 7e3d 6ffa 0d3d
00000040: bafd 223d b67b 1c3b 04c7 683d f8f5 b93c
00000050: 03ee e33c ec96 3a3d 27d4 573d 7bf3 a0bb
00000060: f0b9 d03c 8651 5e3d 63b6 df3c b2d2 453d
00000070: e9c7 203d 6d04 2639 84fd 693c 5fb0 4ebc
00000080: 3c45 1c3d 203f b63d 9878 1e3c 5254 143d
00000090: a492 733d 1b6f f13c 3096 1a3d eb26 153d
000000a0: 06f9 353d fa4c 6e3c 873e 933b 94b1 083d
000000b0: 6b12 913c 3851 cebb 3392 a93c 65c3 613d
000000c0: 1a79 4f3d 66f9 413c 59e1 d93c ddbe 3b3d
000000d0: 1191 7a3d 219a 253d f372 393d e24e 063c
000000e0: ab72 453c f2ce 683c 3ecd 1f3d 765d 163d
000000f0: d7c1 043d ef8e 5e3d f07c 823d fef1 743d

conv1.lin.weight f4 [64, 1000]
-0.029138848 0.41612965 -0.31666547 -0.46409997 0.17078726 0.45302036 -0.0847876 0.35692373
-0.3689317 -0.3001359 0.51512873 -0.44863743 -0.3915464 -0.2827739 0.048625108 -0.46120963
0.3191073 -0.1191829 -0.35837346 -0.16637224 -0.077961385 0.2862472 0.46439335 -0.39924413
0.40514737 -0.075031556 -0.4793099 0.01913909 0.332524 0.40042827 0.2937313 -0.28808305
-0.17792773 0.03503664 -0.23813905 0.12966429 0.29728028 -0.24900886 -0.23533972 -0.32960996
-0.08489872 -0.3555549 -0.3770977 -0.22583875 -0.33947232 -0.36086243 0.19124164 -0.2492444
0.34293902 0.31235662 -0.3038928 0.19307674 -0.29913276 0.17866741 -0.2808296 0.30642092
-0.20326757 0.37790832 -0.28105313 -0.4142508 0.30710447 -0.28127918 0.24102806 0.2782851
-0.3227434 -0.42271554 -0.18699414 0.36041775 0.175327 0.23963663 0.26917523 -0.30551147
0.39098296 0.10751066 -0.097983286 -0.25275436 -0.36380622 0.27353165 0.2311728 -0.100039184
-0.26867977 0.22384016 -0.3292062 -0.3399179 -0.3746547 -0.24730445 0.15678188 0.18778977
-0.37180975 -0.350962 0.061713662 -0.33885345 -0.040368173 0.26626334 0.39987144 -0.240305
0.19035739 -0.26941875 0.38000348 -0.21289729 0.19290614 0.18904571 0.06023984 0.06642707
0.25559568 -0.30583888 -0.22715561 0.111916445 -0.18153286 -0.20729019 0.33256608 -0.2541513
0.28751585 0.29312387 0.22304006 -0.061932333 -0.1493385 0.154601 0.39872178 0.16792117
-0.023845283 0.32536358 0.3025661 0.3619255 0.35086355 -0.010291142 -0.11898727 0.12678704
0.12659715 -0.24072419 -0.06058101 -0.15891494 -0.25406125 -0.2755706 -0.16410908 0.040812798
-0.098298244 -0.24314424 -0.23045577 0.17846994 -0.31615254 0.30698183 0.004071662 0.2035002
-0.041936714 0.28632557 -0.37613404 -0.0006175575 -0.1745553 0.2728403 -0.04074385 -0.04230938
0.020209504 0.018114332 0.04751215 -0.26457614 0.2744663 0.29184756 0.09236362 -0.2274004
-0.12004386 -0.26584598 -0.2807345 -0.038498193 -0.11062849 -0.228452 -0.1260712 0.20251878
-0.100369245 0.2554885 0.000535997 -0.073180884 -0.20407607 0.2699961 -0.23773724 -0.08607822
0.27367684 -0.32946834 -0.34690997 0.1662045 -0.047262862 -0.07091134 0.2656764 0.024087118
-0.14749421 0.18845953 -0.2986588 0.032045253 -0.31971446 -0.20456372 0.08539249 -0.0768922
-0.047055382 0.20921624 0.05226908 0.1126355 0.08616555 -0.1035724 0.19934614 0.011312958
-0.3375108 -0.23757452 -0.2844586 -0.1664147 0.1274301 -0.2070443 0.018896045 -0.24086815
0.12013693 -0.2303332 0.2443184 -0.16092983 0.20270242 -0.30658618 -0.1924956 -0.24424084
0.10312423 -0.098189466 -0.32950246 0.36092886 0.27316424 -0.04735481 -0.38018975 -0.033891123
-0.39298412 0.2636555 0.029991813 -0.25131202 0.08271067 -0.12762882 0.12522744 -0.13355142
-0.23026483 -0.10967592 0.17019023 0.21083838 -0.26224136 0.10980096 0.28176105 0.37829342
0.3147056 0.0065417914 0.22541247 -0.19029565 -0.18897162 0.106476285 0.2310396 -0.22070293
0.025230097 -0.3594955 -0.19621193 0.10398525 -0.23972277 0.27686122 0.24392116 0.026318612
00000000: 98b4 eebc f20e d53e fa21 a2be 839e edbe
00000010: dbe2 2e3e 49f2 e73e 1fa5 adbd b5be b63e
00000020: 9ee4 bcbe 6aab 99be 7adf 033f ceb3 e5be
00000030: c578 c8be bec7 90be 1f2b 473d ab23 ecbe
00000040: 0862 a33e 2a16 f4bd ba7c b7be 7c5d 2abe
00000050: 38aa 9fbd fe8e 923e f7c4 ed3e ba69 ccbe
00000060: 7a6f cf3e 25aa 99bd 1b68 f5be 95c9 9c3c
00000070: 9640 aa3e ef04 cd3e f363 963e 9f7f 93be
00000080: b032 36be 9482 0f3d b9da 73be b7c6 043e
00000090: 1f35 983e 2efc 7ebe e5fc 70be a3c2 a8be
000000a0: 61df adbd 4b0b b6be f312 c1be 4642 67be
000000b0: 51cf adbe f6c2 b8be d9d4 433e ed39 7fbe
000000c0: b495 af3e 35ed 9f3e d697 9bbe e9b5 453e
000000d0: ee27 99be 97f4 363e e6c8 8fbe 34e3 9c3e
000000e0: 6025 50be 337d c13e 32e6 8fbe ae18 d4be
000000f0: cc3c 9d3e d303 90be 0fd0 763e 627b 8e3e
00000100: 9f3e a5be 2c6e d8be 647b 3fbe ad88 b83e
00000110: ec88 333e 4e63 753e 56d1 893e 006c 9cbe
00000120: eb2e c83e 8d2e dc3d 76ab c8bd 0569 81be
00000130: cf44 babe 570c 8c3e 90b8 6c3e 58e1 ccbd
00000140: 6590 89be 5b36 653e b78d a8be b809 aebe
00000150: bed2 bfbe 613d 7dbe 6e8b 203e f64b 403e
00000160: d95d bebe 4bb1 b3be 77c7 7c3d 337e adbe
00000170: 1959 25bd ab53 883e f3bb cc3e 8412 76be
00000180: 0ced 423e 41f1 89be d18f c23e bf01 5abe
00000190: 3089 453e 3395 413e 0dbe 763d ea0a 883d
000001a0: 70dd 823e ea96 9cbe 7b9b 68be 7334 e53d
000001b0: c0e3 39be e143 54be 1a46 aa3e 1f20 82be
000001c0: 4735 933e 5514 963e 9d64 643e c2ac 7dbd
000001d0: 31ec 18be b94f 1e3e 4325 cc3e 87f3 2b3e
000001e0: 2f57 c3bc 0e96 a63e f2e9 9a3e 4d4e b93e
000001f0: 63a4 b33e 2e9c 28bc 99af f3bd 76d4 013e
00000200: afa2 013e 6780 76be cb23 78bd 99ba 22be
00000210: 5114 82be 9717 8dbe 360c 28be 522b 273d
00000220: 9750 c9bd cefa 78be 99fc 6bbe d3c0 363e
00000230: bfde a1be b92c 9d3e 946b 853b 5b62 503e
00000240: d5c5 2bbd 4499 923e a494 c0be 95e3 21ba
00000250: a0be 32be b9b1 8b3e 06e3 26bd 9a4c 2dbd
00000260: 678e a53c 8264 943c 1a9c 423d 8676 87be
00000270: d986 8c3e 0b6d 953e 2329 bd3d a7db 68be
00000280: 8ed9 f5bd f71c 88be 6fbc 8fbe 48b0 1dbd
00000290: 3191 e2bd 52ef 69be cf18 01be 1561 4f3e
000002a0: 648e cdbd 64cf 823e 2682 0c3a dcdf 95bd
000002b0: 51f9 50be ee3c 8a3e 6471 73be c749 b0bd
000002c0: 5f1f 8c3e 13b0 a8be 2f9e b1be 8331 2a3e
000002d0: b496 41bd f739 91bd bd06 883e 5952 c53c
000002e0: b908 17be 89fb 403e cee9 98be e241 033d
000002f0: 9db1 a3be 2779 51be 42e2 ae3d a879 9dbd
00000300: 25bd 40bd c83c 563e 1a18 563d 71ad e63d
00000310: 9077 b03d c41d d4bd 6521 4c3e fc59 393c
00000320: 37ce acbe bc46 73be 8fa4 91be 9d68 2abe
00000330: 097d 023e 6c03 54be e1cb 9a3c 24a6 76be
00000340: 5a0a f63d 77dc 6bbe 9a2e 7a3e caca 24be
00000350: 3991 4f3e ddf8 9cbe 911d 45be 451a 7abe
00000360: cc32 d33d 8f17 c9bd 8cb4 a8be abcb b83e
00000370: 2fdc 8b3e 1ef7 41bd 3ba8 c2be 6bd1 0abd
00000380: 3735 c9be dbfd 863e 64b1 f53c f8ab 80be
00000390: 3664 a93d 21b1 02be 9f3b 003e b4c1 08be
000003a0: 8bca 6bbe c59d e0bd 5946 2e3e 04e6 573e
000003b0: 8044 86be 53df e03d fc42 903e adaf c13e
000003c0: 1821 a13e 865c d63b 87d2 663e dddc 42be
000003d0: c781 41be 3d10 da3d a595 6c3e f3ff 61be
000003e0: 59af ce3c cb0f b8be c8eb 48be 38f6 d43d
000003f0: e379 75be c1c0 8d3e 78c6 793e 219a d73c

conv2.bias f4 [20]
-0.20141785 0.11546869 0.0771975 0.16277008 -0.08912899 0.20657124 -0.21576191 0.26928714
0.08385083 -0.036763433 0.12577549 -0.05061661 -0.16133066 -0.13523479 -0.25006706 -0.15479869
0.09118495 0.29026696 0.24252746 -0.0405283
00000000: 7b40 4ebe d97a ec3d b919 9e3d 33ad 263e
00000010: 4389 b6bd 6987 533e b1f0 5cbe 01e0 893e
00000020: fcb9 ab3d 4195 16bd 4acb 003e 5d53 4fbd
00000030: dd33 25be fd7a 0abe ca08 80be 8c83 1ebe
00000040: 2dbf ba3d df9d 943e 1e59 783e 0101 26bd

conv2.lin.weight f4 [20, 64]
0.384281 0.4296225 -0.61816674 0.5859127 -0.3247201 0.5553192 0.6525409 -0.46835908
-0.35804835 -0.1687241 0.5054289 -0.5548879 0.5957164 0.55386543 -0.34722903 -0.47717473
0.50973433 0.50778943 0.5555634 0.44105616 -0.64867383 0.6400315 -0.6153602 0.6005673
-0.60361177 0.5311389 -0.6330689 0.4168105 -0.67425966 0.3970251 0.567517 -0.36450556
-0.5407259 0.4954408 0.6763355 -0.5567394 0.6188361 0.6018313 -0.5048579 0.6117343
0.5792608 0.5370494 0.36620057 0.6839287 0.5929369 -0.4605613 0.4690694 0.5036567
-0.4551398 -0.5122946 -0.39596027 0.45128396 0.5250169 -0.62050843 0.65492046 -0.40923163
0.6126449 0.6202797 -0.6048571 0.5688298 -0.6386455 0.5048263 0.5177273 -0.6829818
-0.6498097 0.2766551 0.59488285 -0.52904886 -0.47549915 -0.562134 0.6607111 0.47596487
-0.6574197 -0.3753696 -0.5394587 0.46042812 0.47606394 -0.6656896 0.35578826 0.46706977
0.5683722 -0.5300438 0.4924105 -0.5969932 0.3688748 0.45834658 0.55313486 -0.44238177
-0.5855543 -0.6071906 -0.6386236 0.66133326 -0.3617082 -0.5843981 -0.5088599 -0.45420375
0.6566348 0.45150754 -0.53635263 -0.4662304 0.6204252 0.3686654 -0.55894226 0.63882864
-0.5730639 -0.6333985 0.5934806 -0.29743385 -0.5250368 0.43014923 0.48090616 -0.52049756
0.6704232 0.51037776 0.30497372 -0.67369086 0.57791215 -0.6121111 -0.65419286 0.208806
-0.07969059 -0.43379948 0.5504255 -0.66889447 -0.56130445 0.29026663 0.5970914 0.51495254
0.10303536 0.38339505 -0.63995993 -0.56289244 -0.67258734 -0.52359384 0.6818818 0.56883305
-0.47187197 0.69529384 0.46532294 0.6553108 0.62615174 -0.16163841 0.62256765 -0.6762067
-0.4793252 -0.64545906 -0.20415734 0.66122943 -0.6692908 -0.5797758 0.5981751 -0.63419944
-0.05030746 0.6540953 0.6008098 0.5170495 0.6648232 0.5411362 -0.6224804 0.6066316
0.49386582 0.27843356 0.5937674 0.62501746 -0.5560035 -0.31402117 -0.45914268 -0.471025
0.4663179 0.5485838 0.38366115 -0.6288064 -0.52996325 -0.57536083 -0.6361488 0.3408609
0.2647705 -0.51575136 -0.49481818 -0.1628011 0.43072215 -0.6383796 -0.43032673 -0.5475632
0.52210003 -0.40351665 0.6368493 0.6425415 0.59714437 -0.6614594 -0.4850806 0.2139361
0.5299319 -0.5401634 -0.70682126 -0.59891033 -0.01655413 -0.7003941 -0.55389076 0.67352927
0.61265105 -0.5151599 -0.54890805 0.518557 -0.55754584 0.67405635 0.45650727 0.6663938
0.31033987 0.5269946 -0.6730293 0.11619146 -0.44014364 -0.5591042 0.48088357 -0.63801944
0.65203285 -0.42784923 -0.572512 0.5524047 -0.5559204 0.5425725 0.43709815 -0.67902684
0.7045681 0.59034896 -0.56438434 0.09260968 0.44223034 -0.5075112 0.53016335 -0.6186219
-0.6160238 -0.5338107 -0.6440901 -0.46704826 -0.42666376 0.5518091 0.2652989 0.5309253
0.44385633 0.6225273 -0.6538828 0.40857372 -0.00037475408 0.45295772 0.54592013 -0.63192725
-0.49158838 -0.58424103 0.6283441 -0.5541487 -0.51487935 0.5641731 -0.48484382 -0.6872583
00000000: 7bc0 c43e 7bf7 db3e 2d40 1ebf 60fe 153f
00000010: b741 a6be 6629 0e3f ec0c 273f c3cc efbe
00000020: 1d52 b7be 03c6 2cbe ca63 013f 220d 0ebf
00000030: df80 183f 20ca 0d3f 01c8 b1be 3f50 f4be
00000040: f37d 023f 7dfe 013f 6739 0e3f 1dd2 e13e
00000050: 7d0f 26bf 1bd9 233f 3f88 1dbf c7be 193f
00000060: 4d86 1abf b8f8 073f ce10 22bf 3068 d53e
00000070: 489c 2cbf e046 cb3e cb48 113f 79a0 babe
00000080: 036d 0abf 6baa fd3e 5324 2d3f 7986 0ebf
00000090: 0b6c 1e3f 9e11 1a3f 5e3e 01bf 9e9a 1c3f
000000a0: 704a 143f 127c 093f a47e bb3e f415 2f3f
000000b0: b6ca 173f b1ce ebbe dd29 f03e a5ef 003f
000000c0: 1508 e9be bd25 03bf 4ebb cabe b10e e73e
000000d0: 8267 063f a4d9 1ebf dea8 273f cf86 d1be
000000e0: 4cd6 1c3f a7ca 1e3f ead7 1abf d49e 113f
000000f0: 467e 23bf 4c3c 013f c789 043f e5d7 2ebf
00000100: ee59 26bf bda5 8d3e 3e4a 183f bf6f 07bf
00000110: a074 f3be 04e8 0fbf 5d24 293f abb1 f33e
00000120: a84c 28bf 7230 c0be f719 0abf 3cbd eb3e
00000130: a7be f33e a26a 2abf e129 b63e c523 ef3e
00000140: d780 113f f3b0 07bf 3b1d fc3e 8cd4 18bf
00000150: 28dd bc3e 67ac ea3e 3f9a 0d3f dd7f e2be
00000160: e3e6 15bf d870 1bbf d67c 23bf 234d 293f
00000170: d131 b9be 1d9b 15bf a444 02bf 658d e8be
00000180: 3819 283f ff2b e73e 684e 09bf c0b5 eebe
00000190: 30d4 1e3f b6c1 bc3e d716 0fbf 468a 233f
000001a0: 51b4 12bf 6726 22bf 58ee 173f 4049 98be
000001b0: d068 06bf 853c dc3e 5539 f63e 543f 05bf
000001c0: dba0 2b3f 1ea8 023f 8425 9c3e 0177 2cbf
000001d0: 0df2 133f 50b3 1cbf 2f79 27bf 3dd1 553e
000001e0: d234 a3bd f71a debe b0e8 0c3f ab3c 2bbf
000001f0: a6b1 0fbf d49d 943e fbda 183f eed3 033f
00000200: 3404 d33d 5b4c c43e 6ad4 23bf b819 10bf
00000210: af2e 2cbf 3f0a 06bf ce8f 2e3f 0b9f 113f
00000220: 3499 f1be c7fe 313f cf3e ee3e 73c2 273f
00000230: 7b4b 203f 8a84 25be 9860 1f3f e21b 2dbf
00000240: 1d6a f5be ce3c 25bf 9f0e 51be 5546 293f
00000250: a456 2bbf 306c 14bf 0122 193f e55a 22bf
00000260: 320f 4ebd ca72 273f acce 193f 5b5d 043f
00000270: da31 2a3f e787 0a3f e05a 1fbf 354c 1b3f
00000280: fbdb fc3e d88e 8e3e 2401 183f 2501 203f
00000290: 3f56 0ebf 62c7 a0be c014 ebbe 302a f1be
000002a0: 38c1 ee3e fd6f 0c3f 3c6f c43e 75f9 20bf
000002b0: acab 07bf d94a 13bf a6da 22bf 5285 ae3e
000002c0: 0090 873e 4808 04bf cf58 fdbe 55b5 26be
000002d0: 9d87 dc3e d86c 23bf c953 dcbe 1a2d 0cbf
000002e0: 59a8 053f bc99 cebe 8e08 233f 9a7d 243f
000002f0: 74de 183f 6755 29bf 7c5c f8be 1112 5b3e
00000300: 9ea9 073f 2648 0abf 3df2 34bf 3052 19bf
00000310: 879c 87bc 074d 33bf c9cb 0dbf 6a6c 2c3f
00000320: b3d6 1c3f 85e1 03bf 3d85 0cbf 27c0 043f
00000330: 53bb 0ebf f58e 2c3f 52bb e93e c998 2a3f
00000340: dee4 9e3e 1ee9 063f a64b 2cbf caf5 ed3d
00000350: 825a e1be 7421 0fbf 5f36 f63e 3e55 23bf
00000360: a0eb 263f 0e0f dbbe 2590 12bf 656a 0d3f
00000370: cd50 0ebf 08e6 0a3f 54cb df3e b4d4 2dbf
00000380: 935e 343f 1c21 173f 7e7b 10bf 25aa bd3d
00000390: 046c e23e 41ec 01bf c9b8 073f 015e 1ebf
000003a0: bcb3 1dbf d1a7 08bf 17e3 24bf f320 efbe
000003b0: ac73 dabe 5c43 0d3f 42d5 873e b8ea 073f
000003c0: 2341 e33e f35d 1f3f dd64 27bf 9330 d13e
000003d0: a47a c4b9 13ea e73e 6cc1 0b3f fcc5 21bf
000003e0: 79b1 fbbe d290 15bf 29db 203f b0dc 0dbf
000003f0: 22cf 03bf a66d 103f 733d f8be 29f0 2fbf
