model_GCN_state_dict.pt (torch, 132664 bytes, 4 tensors)

conv1.bias f4 [64]
0	0x3e8e31d4	0.2777239
1	0x3e3b7c03	0.18309025
2	0x3e3d2e41	0.18474676
3	0x3e5e17d7	0.21688782
4	0x3e62cd43	0.22148614
5	0x3e5c63e1	0.21522476
6	0x3db77d95	0.089595
7	0x3e0dc811	0.1384585
8	0x3de5c110	0.112184644
9	0x3db65d2e	0.08904491
10	0x3e54feb7	0.20800291
11	0x3e201405	0.15632637
12	0x3df58c6e	0.119896755
13	0x3d732a92	0.05936677
14	0x3d89eb76	0.06734364
15	0x3df510a4	0.119660646
16	0x3e80322a	0.25038272
17	0x3e6d85ce	0.23195574
18	0x3e261379	0.16218366
19	0x3e510db1	0.20415379
20	0x3e68992a	0.22714677
21	0x3e6d2a1c	0.23160595
22	0x3e57b355	0.21064503
23	0x3e699413	0.22810392
24	0x3e88599b	0.26630864
25	0x3e15b77a	0.14620772
26	0x3e5e5c28	0.21714842
27	0x3e5ac2af	0.21363328
28	0x3d632fc9	0.055465493
29	0x3e65b79c	0.22433323
30	0x3e555b9d	0.20835729
31	0x3dc6fdff	0.09716415
32	0x3e586add	0.21134515
33	0x3d9ee788	0.07759005
34	0x3e6172b6	0.22016415
35	0x3d128d16	0.03577908
36	0x3e8b61aa	0.2722295
37	0x3e46da3b	0.19419186
38	0x3e4c60cc	0.199588
39	0x3e645efe	0.22301862
40	0x3e1f8b81	0.1558056
41	0x3e629c59	0.22129954
42	0x3dbf1509	0.09330184
43	0x3e64eb32	0.22355345
44	0x3e219932	0.15781096
45	0x3e5ee0bc	0.21765417
46	0x3d918c99	0.07106895
47	0x3dffc386	0.12488465
48	0x3e6648b7	0.22488676
49	0x3e6c9eb4	0.23107415
50	0x3de2cd8f	0.110743634
51	0x3de3c2d8	0.11121148
52	0x3e8fdfd0	0.28100443
53	0x3e66e5d0	0.22548604
54	0x3e770990	0.24124742
55	0x3e6af8d9	0.2294649
56	0x3e378dc1	0.17925169
57	0x3e4b64df	0.19862698
58	0x3e5c7a71	0.21531083
59	0x3e60d987	0.2195798
60	0x3e0bfda6	0.13670978
61	0x3da3a391	0.07990182
62	0x3dd42010	0.10357678
63	0x3e6060b2	0.21911886

conv1.lin.weight f4 [64, 500]
0	0x3d852819	0.06501789
1	0x3ea28f1d	0.31749812
2	0x3e04777b	0.12936203
3	0x3eb67bbd	0.3564128
4	0xbec02c9f	-0.37534043
5	0x3efc7b23	0.49312696
6	0x3eace349	0.33767155
7	0x3eedabb6	0.46420068
8	0xbed3fa08	-0.41401696
9	0x3ef88ca8	0.48544812
10	0x3cf1d1a6	0.029518913
11	0xbed13fc4	-0.40868962
12	0xbe92479f	-0.28570268
13	0xbeb7c119	-0.3588951
14	0xbeba0ed8	-0.3633945
15	0xbe09e11b	-0.13464777
16	0xbe31ae8d	-0.17351742
17	0x3e6adf87	0.22936831
18	0xbe49ea45	-0.19718273
19	0x3e41be63	0.18920283
20	0x3e8c1f80	0.27367783
21	0xbe803957	-0.25043747
22	0xbe7d4870	-0.24734664
23	0xbe931686	-0.28728122
24	0x3e86d79b	0.2633637
25	0x3e90c6e2	0.28276736
26	0xbda07510	-0.07834828
27	0x3e48e579	0.19618787
28	0x3de741f4	0.112918764
29	0x3e33d3a2	0.175612
30	0xbec8bc01	-0.39205936
31	0x3e2b8888	0.16751301
32	0xbe6f139d	-0.23347326
33	0x3e41ae98	0.18914258
34	0x3e71492f	0.23563074
35	0xbe1ee91b	-0.1551861
36	0xbe5987d6	-0.21243224
37	0x3e82f592	0.2557798
38	0xbe58215a	-0.21106473
39	0xbe34ef22	-0.17669347
40	0x3e0ab083	0.13543896
41	0xbe2d7b8e	-0.16941664
42	0x3e0068fb	0.12540047
43	0xbe73d443	-0.2381144
44	0x3da2a2b1	0.07941187
45	0x3eb8d361	0.3609877
46	0x3ebc6d48	0.36802125
47	0x3e29f5ee	0.16597721
48	0x3e509b9c	0.2037186
49	0xbe793694	-0.24337226
50	0x3e24e91f	0.16104554
51	0xbe1c418d	-0.1525938
52	0x3df15c5c	0.11785194
53	0x3dbe93b1	0.09305514
54	0xbe943e0f	-0.28953597
55	0x3df00b3a	0.11720891
56	0x3e024854	0.12722903
57	0xbdf1dd06	-0.11809735
58	0xbdd8240b	-0.1055375
59	0x3d05b25a	0.032640792
60	0xbe8f56e1	-0.2799597
61	0xbe14dc48	-0.14537156
62	0x3dddabd2	0.10823788
63	0x3e060626	0.13088283
64	0xbd846517	-0.06464594
65	0xbc8cff27	-0.01721151
66	0x3e09d553	0.13460283
67	0xbdd7e5b5	-0.1054186
68	0xbcfc632e	-0.030809011
69	0xbeaef7e0	-0.3417349
70	0x3cbb41e0	0.02285856
71	0x3d12d13f	0.035844084
72	0xbe0e2fca	-0.13885418
73	0x3ce2f4dc	0.027704649
74	0x3ba4af6a	0.005025794
75	0x3eb70be1	0.3575125
76	0xbd649110	-0.055802405
77	0x3e17fa16	0.14841494
78	0xbe898329	-0.2685788
79	0x3e73d06c	0.23809975
80	0x3d7541c9	0.05987719
81	0xbde0021c	-0.10937902
82	0xbe0be17b	-0.13660233
83	0x3b7b99dd	0.003839127
84	0xbc035a78	-0.008017175
85	0x3ea1d46d	0.3160738
86	0xbcd3c89c	-0.025852494
87	0xbe7905ce	-0.2431862
88	0xbd01ad6d	-0.031659532
89	0x3e80611a	0.25074083
90	0xbe555b9c	-0.20835727
91	0xbd1f9082	-0.038956173
92	0x3e57e912	0.21085003
93	0x3cb303ae	0.02185234
94	0xbdd715dc	-0.10502216
95	0x3ee20e4d	0.44151536
96	0x3ec3c6fb	0.38237748
97	0x3ebfb072	0.37439305
98	0xbe7a1b35	-0.24424441
99	0x3eb039f9	0.3441923
100	0x3e3ec16e	0.18628475
101	0xbdb3adf6	-0.08773415
102	0x3c157e21	0.00912431
103	0x3e1640fc	0.14673227
104	0x3db18298	0.08667487
105	0xbe762cae	-0.24040481
106	0x3e10b37f	0.14130972
107	0xbe190ade	-0.14945552
108	0x3cd66f06	0.026175987
109	0x3e21ff39	0.15820016
110	0xbe6947d6	-0.2278131
111	0xbe870d1a	-0.26377183
112	0xbd3e148a	-0.046406306
113	0xbe5075b2	-0.20357397
114	0xbeaee3a3	-0.34158048
115	0xbe2e09f6	-0.16995987
116	0xbe7b239b	-0.24525301
117	0xbe4b3569	-0.19844593
118	0x3ea2f597	0.31827995
119	0xbec0cc29	-0.37655762
120	0xbe2bf072	-0.16790941
121	0x3e3801fa	0.17969504
122	0x3e9b9e3e	0.30394167
123	0x3e3377df	0.17526196
124	0xbc9521fa	-0.018204678
125	0x3eb6963f	0.35661504
126	0x3d6e56b7	0.058188166
127	0xbe57c30e	-0.21070501
128	0x3e75030d	0.23926945
129	0x3e5dd50d	0.21663304
130	0x3e4504b3	0.19240074
131	0x3e839a36	0.2570359
132	0x3db4af65	0.08822516
133	0xbcdb1d31	-0.026747318
134	0xbe068799	-0.13137664
135	0xbe8ca937	-0.2747285
136	0xbe852ab8	-0.26009154
137	0x3e3f53e3	0.18684344
138	0x3dc6a2b2	0.096990004
139	0x3e0d9608	0.13826764
140	0xbd39195a	-0.045190193
141	0x3d2f40cb	0.0427864
142	0xbda7a0ec	-0.0818499
143	0x3e6b4936	0.22977147
144	0x3db786c6	0.08961253
145	0x3def164a	0.11674173
146	0x3e5872be	0.2113752
147	0x3d867aa9	0.06566364
148	0x3e3c54c6	0.18391714
149	0x3e59f387	0.21284305
150	0x3e6a1d16	0.22862658
151	0x3dccfb3b	0.10008856
152	0xbd889a9e	-0.06670116
153	0xbe393c8a	-0.180895
154	0x3eadb0a8	0.3392384
155	0xbdcfab38	-0.10140079
156	0x3dba7e5d	0.09106133
157	0xbda8f013	-0.082489155
158	0xbd9370cd	-0.071992494
159	0x3d4f025d	0.050539363
160	0x3b82b525	0.0039888793
161	0x3df1166e	0.11771856
162	0xbd3a148e	-0.04542976
163	0x3d465bbd	0.048427332
164	0x3d414118	0.04718122
165	0x3e150073	0.14550953
166	0x3e274507	0.16334926
167	0x3dcf2d49	0.10116059
168	0x3eb0bfd5	0.34521356
169	0xbe1bd9ab	-0.15219752
170	0x3e9013be	0.28140062
171	0xbd8c1d89	-0.06841571
172	0x3cd25e97	0.02567987
173	0xbd8d7023	-0.06906154
174	0x3dc37244	0.09543279
175	0x3cc9799e	0.024594124
176	0x3ddd13e7	0.10794812
177	0x3e1ecb42	0.15507224
178	0xbe15e0a7	-0.1463648
179	0x3e0d46c2	0.13796523
180	0xbbdc5b52	-0.0067247534
181	0x3e8804c3	0.26566133
182	0x3d5b5a1c	0.053552732
183	0xbdeb487d	-0.114884354
184	0x3b6b01ab	0.0035859148
185	0x3e9b5b9d	0.30343333
186	0xbb609a02	-0.0034271483
187	0xbdb3b5c3	-0.08774903
188	0xbe0ebeff	-0.13940047
189	0xbb5d0bc1	-0.003372893
190	0xbea1c8be	-0.31598467
191	0x3e275a30	0.16342998
192	0xbe17cfd7	-0.14825378
193	0xbe8c69ae	-0.27424377
194	0xbc99e5fa	-0.01878642
195	0x3e4c8b0e	0.1997492
196	0x3e0942a2	0.13404325
197	0x3d1448e7	0.036202338
198	0xbe1a8384	-0.15089232
199	0x3e311051	0.1729138
200	0xbdc9c470	-0.098519206
201	0xbddbb9c0	-0.107287884
202	0xbe1486b8	-0.14504516
203	0x3d9a2c00	0.075279236
204	0x3da0dbf0	0.0785445
205	0xbe60d64b	-0.21956746
206	0x3e39f666	0.181604
207	0x3dd62750	0.10456717
208	0x3c0fdd84	0.008780841
209	0x3e0493c5	0.12946995
210	0x3d9837cb	0.07432517
211	0xbbd1f0ca	-0.006406878
212	0xbdf52f9a	-0.1197197
213	0x3a919146	0.0011105917
214	0xbddc9144	-0.10769895
215	0xbcb86bed	-0.0225124
216	0xbe648d59	-0.22319545
217	0xbc28d407	-0.0103044575
218	0x3e23f091	0.16009738
219	0x3e0f8955	0.14017232
220	0xbdce9304	-0.10086635
221	0x3ad055d0	0.0015894715
222	0xbe406252	-0.18787506
223	0x3e7df51e	0.24800536
224	0x3e275719	0.16341819
225	0xbd042ee0	-0.032271266
226	0xbe085959	-0.13315333
227	0xbdee7cd1	-0.116449006
228	0xbc20676a	-0.009790281
229	0x3e37548e	0.17903349
230	0x3e76c72f	0.2409942
231	0x3e58a161	0.21155311
232	0x3d5aa6d6	0.053381763
233	0xbe502d62	-0.20329812
234	0xbe3a3c02	-0.18186954
235	0xbe0ea817	-0.13931309
236	0xbe021628	-0.12703764
237	0x3d1e34d9	0.03862462
238	0xbe9e05b1	-0.30863717
239	0x3ba4f6b4	0.005034292
240	0x3e168190	0.14697862
241	0xbe49f055	-0.19720586
242	0xbe30ffec	-0.17285126
243	0x3e94df80	0.29076767
244	0x3d0dde76	0.034635983
245	0xbc0b2f95	-0.008495231
246	0xbdba8bc9	-0.09108693
247	0x3e3a5b5c	0.18198913
248	0x3df2ebf3	0.1186141
249	0x3e34d5bd	0.1765966
250	0xbd3b5220	-0.045732617
251	0x3e875965	0.2643539
252	0x3e2597bb	0.16171162
253	0x3e86ff0a	0.26366454
254	0xbc82b0a8	-0.015953377
255	0x3d859706	0.06522946

conv2.bias f4 [8]
0	0x3e28c6fe	0.1648216
1	0x3de89efe	0.1135845
2	0xbdad9d32	-0.08477248
3	0xbe3bebb0	-0.18351626
4	0xbe42b457	-0.19014107
5	0xbdf9886c	-0.121842235
6	0xbe1e66b7	-0.1546887
7	0xbdf61601	-0.12015916

conv2.lin.weight f4 [8, 64]
0	0x3e870d29	0.26377228
1	0x3e4de064	0.2010513
2	0x3c991aed	0.018689597
3	0x3efaa09e	0.48950666
4	0x3f087a7c	0.53311896
5	0x3eefe54a	0.4685462
6	0xbee9a4d0	-0.45633554
7	0xbf0c4de6	-0.54806364
8	0xbf0e3b7e	-0.5555953
9	0xbed85344	-0.42251027
10	0x3ee063ef	0.43826243
11	0x3d1851da	0.037187435
12	0xbee2f549	-0.44327763
13	0xbef5fa06	-0.48042315
14	0xbf1ea778	-0.6197429
15	0xbf11ed18	-0.570024
16	0x3ed349bc	0.41267192
17	0x3f11d9d0	0.5697298
18	0xbef2e626	-0.47441214
19	0x3eedee18	0.46470714
20	0x3eb06ea6	0.34459418
21	0x3efd2f2c	0.49450052
22	0x3edbfd76	0.42966813
23	0x3f01ef90	0.5075617
24	0x3ebea7c1	0.3723736
25	0xbf17b331	-0.592578
26	0x3eb34398	0.35012507
27	0x3f19b492	0.60041153
28	0xbea6941c	-0.32534873
29	0x3e4852bd	0.19562812
30	0x3e8ed06e	0.27893394
31	0xbf1091a4	-0.5647223
32	0x3eefbb00	0.46822357
33	0xbf0c9eb0	-0.5492964
34	0x3eaa855b	0.33304867
35	0xbeb1f6c0	-0.34758568
36	0x3e7f1bd5	0.24912961
37	0x3ed5cff5	0.4176022
38	0x3ef580b1	0.47949746
39	0x3f161242	0.5862161
40	0xbf17f2f7	-0.5935511
41	0x3f0cc0b3	0.54981536
42	0xbeb8dc53	-0.36105594
43	0x3eb088f5	0.3447949
44	0xbe9cf6c7	-0.30657026
45	0x3e03a84a	0.12857166
46	0xbeb38b11	-0.35067037
47	0xbedf22e2	-0.435813
48	0x3eed9467	0.46402285
49	0x3f0303e7	0.5117783
50	0xbef556df	-0.4791784
51	0xbf0280b9	-0.50977665
52	0x3eb54c48	0.3540976
53	0x3ee352ca	0.443991
54	0x3f088811	0.5333262
55	0x3eecbd40	0.46238136
56	0x3f1896df	0.5960521
57	0x3dadc5a1	0.0848496
58	0x3f08d893	0.53455466
59	0x3f1191cc	0.56863093
60	0xbe83f528	-0.25772977
61	0xbf0ded95	-0.55440646
62	0xbf16e8fc	-0.58949256
63	0xbecc7d35	-0.39939275
64	0x3e9891aa	0.29798633
65	0x3f1e826e	0.6191777
66	0x3f0c37e2	0.5477277
67	0xbefc49ae	-0.49274963
68	0xbe95d436	-0.29263467
69	0x3efd2869	0.49444893
70	0x3f14ccf3	0.5812523
71	0x3ee3c915	0.4448935
72	0xbeec739d	-0.46181956
73	0xbeb832f4	-0.35976374
74	0xbf016798	-0.50548697
75	0x3f1441f9	0.57913166
76	0x3ee8ade6	0.45445174
77	0xbef039c9	-0.46919087
78	0xbeb08177	-0.34473774
79	0xbddebf3c	-0.10876319
80	0xbe4d4bbe	-0.20048425
81	0xbd157c0e	-0.03649526
82	0x3ebdab3e	0.3704471
83	0xbf0588ea	-0.5216204
84	0xbf0ffa68	-0.56241465
85	0x3eb7827d	0.35841742
86	0xbf1823ac	-0.5942943
87	0xbe1d852d	-0.15382834
88	0x3e6a0f5b	0.2285742
89	0x3f08ae74	0.53391194
90	0x3e9c97f3	0.30584678
91	0xbda2becd	-0.079465486
92	0xbf369ee7	-0.71336216
93	0x3ec1b48a	0.37833053
94	0xbf149598	-0.5804076
95	0x3f2d967f	0.67807764
96	0xbea9c5d4	-0.33158743
97	0xbec31fe1	-0.3811026
98	0x3f0d2acf	0.55143446
99	0xbefba93d	-0.49152556
100	0xbd3818cd	-0.044945527
101	0xbf2af28f	-0.66776365
102	0xbef0b3c7	-0.4701216
103	0xbe5d48e7	-0.21609841
104	0x3e5cb7be	0.21554467
105	0x3f07bfd2	0.5302707
106	0x3f1c90c7	0.6115841
107	0xbed9119d	-0.4239625
108	0x3e9a3b43	0.30123338
109	0x3f01a3e6	0.50640714
110	0xbef980a7	-0.48730966
111	0x3eca89f3	0.39558372
112	0xbe4da465	-0.20082243
113	0x3e87a929	0.26496246
114	0x3f1ebcf3	0.62007064
115	0x3f234617	0.63778824
116	0x3e97f2be	0.29677385
117	0x3f09aaef	0.5377645
118	0xbe58324b	-0.21112935
119	0x3e8c33bf	0.2738323
120	0xbed5cbae	-0.41756958
121	0x3f0c3b42	0.5477792
122	0xbf109160	-0.56471825
123	0x3f0ed70a	0.55796874
124	0x3f247436	0.64239824
125	0xbf292643	-0.6607401
126	0x3efd3129	0.4945157
127	0x3e7f8dd7	0.24956451
128	0xbf032bb9	-0.5123859
129	0xbf0e6204	-0.5561831
130	0xbe07e2ff	-0.13270186
131	0x3edb24b7	0.4280145
132	0xbcadb3c1	-0.021203877
133	0xbe6cbf8b	-0.23119943
134	0xbf2fdd93	-0.6869747
135	0xbd04b98f	-0.032403525
136	0x3f1173a8	0.568171
137	0x3ecf58c9	0.40497425
138	0xbe5aaff1	-0.21356179
139	0xbf0b9ff8	-0.5454097
140	0x3c2e4ed4	0.010638911
141	0x3f16fab6	0.58976305
142	0x3f113d01	0.5673371
143	0xbf34ad4e	-0.7057694
144	0xbed16223	-0.40895185
145	0x3e97cc42	0.29648024
146	0x3f162f86	0.58666265
147	0xbf11ca26	-0.5694908
148	0xbf23fd93	-0.640588
149	0xbf189fd9	-0.5961891
150	0x3e9ddd0a	0.30832702
151	0xbf0134f9	-0.50471455
152	0xbf017e0d	-0.50582963
153	0x3efae38c	0.4900173
154	0xbf0c8482	-0.5488969
155	0xbf07cb83	-0.5304491
156	0x3f13b15f	0.5769252
157	0xbe8e425f	-0.27785012
158	0xbf007242	-0.50174344
159	0x3f014ab0	0.5050459
160	0xbf03f07d	-0.5153883
161	0xbf34e9ee	-0.7066945
162	0xbf04dd13	-0.5189983
163	0xbf3856ab	-0.72007245
164	0x3e9e7418	0.30947948
165	0xbf2a0f13	-0.6642925
166	0x3e9dbf36	0.30809945
167	0x3e676f80	0.22601128
168	0xbf4ca0b0	-0.7993269
169	0xbe23acf9	-0.15983953
170	0xbe130ab6	-0.14359555
171	0xbf102ba9	-0.5631662
172	0xbf30844c	-0.6895187
173	0x3eaa4f2c	0.33263528
174	0xbf31a7ac	-0.6939647
175	0x3e83087a	0.25592405
176	0x3d653b3f	0.055964705
177	0xbe8eeba4	-0.27914155
178	0x3e5b43a2	0.21412519
179	0xbf1ec490	-0.6201868
180	0xbf2e7be9	-0.6815782
181	0xbefa4e08	-0.48887658
182	0x3ebf09bf	0.37312123
183	0xbf1316da	-0.57456744
184	0xbef46144	-0.47730458
185	0xbf297545	-0.66194564
186	0x3ef7ec5f	0.48422524
187	0xbe870d54	-0.26377356
188	0x3f27386c	0.6532047
189	0x3eacb8d5	0.33734766
190	0x3dce52ab	0.100743614
191	0x3f1e8f8a	0.61937773
192	0xbebd8767	-0.37017366
193	0xbee37ac3	-0.44429597
194	0xbed97c0c	-0.42477453
195	0xbebca95f	-0.3684797
196	0xbf0102dd	-0.50394994
197	0xbe6dd985	-0.23227508
198	0xbf14fe5e	-0.58200634
199	0xbf335353	-0.7004902
200	0xbf2a487d	-0.6651686
201	0x3eae5042	0.34045607
202	0xbd9d6f26	-0.076872155
203	0xbe591d44	-0.2120257
204	0x3f1e30a1	0.6179295
205	0x3e5788cd	0.21048279
206	0x3f026b43	0.5094492
207	0x3f02f400	0.51153564
208	0xbe8fecae	-0.2811026
209	0xbd225544	-0.039632097
210	0xbf2e835f	-0.68169206
211	0x3e0d5ef2	0.1380575
212	0xbec5bf86	-0.38622683
213	0xbedfcb98	-0.43710017
214	0xbec365c7	-0.38163587
215	0x3e38fa87	0.18064319
216	0xbef414aa	-0.47672015
217	0xbec89c4f	-0.39181754
218	0xbded2879	-0.11579985
219	0x3d396b33	0.04526825
220	0xbf13b136	-0.5769228
221	0xbf095198	-0.5364013
222	0xbedf161c	-0.43571556
223	0xbf014803	-0.50500506
224	0x3db86e0c	0.09005365
225	0x3f1d79d7	0.6151404
226	0xbea4d14c	-0.3219093
227	0x3f0e8eda	0.55686724
228	0xbf0268bb	-0.50941056
229	0x3ee152af	0.44008395
230	0xbe30d8c8	-0.17270195
231	0xbd4bf0c1	-0.049790148
232	0xbf2c461d	-0.67294484
233	0xbdd4dfd4	-0.10394254
234	0xbed15efc	-0.4089278
235	0x3d0fc48f	0.035099562
236	0xbe7fb0b1	-0.24969746
237	0x3e31cec4	0.17364031
238	0x3eae5e4f	0.34056327
239	0xbf0aac88	-0.5416951
240	0xbecf0d05	-0.4043962
241	0xbeee1dc8	-0.46507096
242	0x3e7e7124	0.24847847
243	0x3e26c708	0.16286862
244	0xbea830fc	-0.32849872
245	0xbeb44584	-0.35209286
246	0xbe20fc29	-0.15721191
247	0xbd8bda69	-0.06828768
248	0xbeba9f04	-0.36449444
249	0xbef500c9	-0.47852162
250	0x3db3ba6f	0.08775794
251	0xbe7fa9b7	-0.24967085
252	0xbf1f36e6	-0.62193143
253	0x3e9f887d	0.3115882
254	0x3f06c8ff	0.52650446
255	0xbf33186b	-0.69959134
